Deployment/resources/regression.pt (torch, 106051 bytes, 8 tensors)

net.0.weight f4 [128, 4]
0	0x3ef14272	0.47121006
1	0xbdbc31fb	-0.091892205
2	0x3b1844a9	0.0023234284
3	0xbd3f1d26	-0.046658657
4	0x3d535658	0.051596016
5	0xbdcd765d	-0.10032342
6	0xbdeb0261	-0.11475063
7	0xbcc2694c	-0.02373185
8	0xbdfc20c2	-0.123109356
9	0xbebbcb55	-0.36678568
10	0xbdbd9d67	-0.09258538
11	0xbe087630	-0.13326335
12	0xbec31f76	-0.3810994
13	0xbdda795e	-0.1066768
14	0xbe863aaf	-0.26216647
15	0xbe92cefc	-0.28673542
16	0x3e0c9716	0.1372951
17	0x3ecc5f9a	0.39916688
18	0xbe50e705	-0.20400627
19	0xbe8cdfb9	-0.27514437
20	0x3e0b74e5	0.1361881
21	0xbec0d961	-0.37665847
22	0xbd6cbe7a	-0.05779884
23	0xbec1f567	-0.3788254
24	0x3e7b7e9f	0.24560021
25	0x3e9ba1e9	0.30396965
26	0x3d00351a	0.03130064
27	0x3e1c1277	0.15241419
28	0x80055fc7	-4.93536e-40
29	0x80055a22	-4.91511e-40
30	0x80059639	-5.13067e-40
31	0x8005813d	-5.0554e-40
32	0xbe8bf223	-0.27333173
33	0xbe65b17d	-0.22430988
34	0xbd03d7d5	-0.032188255
35	0x3dd51c83	0.10405829
36	0x3e86aef6	0.2630536
37	0x3e883e30	0.26609945
38	0xbe1437ee	-0.1447446
39	0x3ad296be	0.0016066653
40	0x3e8c3d67	0.27390596
41	0xbed64aac	-0.41853845
42	0xbc04275d	-0.008066026
43	0x3c236d75	0.009974827
44	0x3bcb3ae4	0.0062020887
45	0x3e264f54	0.16241199
46	0x3eefba70	0.46821928
47	0xbedfb10b	-0.4368976
48	0x3eaef2bd	0.3416957
49	0x3db53de7	0.088496976
50	0xbd9aed09	-0.07564742
51	0xb9dbaccd	-0.00041899682
52	0x3dee0f25	0.11623982
53	0xbd2e96b1	-0.04262418
54	0x3e02bcef	0.12767385
55	0xbd2074d8	-0.03917393
56	0x80058cf9	-5.09749e-40
57	0x800abbd4	-9.85735e-40
58	0x8007b212	-7.06728e-40
59	0x8008be8c	-8.0304e-40
60	0x3e62e610	0.22158074
61	0xbd20b1ef	-0.03923219
62	0xbe25eb1b	-0.16202967
63	0xbe3bf20b	-0.18354051
64	0xbe878fcb	-0.26476893
65	0x3e5a5664	0.21322018
66	0x3e1eda16	0.1551288
67	0x3e281095	0.16412576
68	0xbe24e830	-0.16104198
69	0x3de0032e	0.109381065
70	0xbd5ad75a	-0.05342803
71	0xbd028c93	-0.031872343
72	0x3ef3fa49	0.4765189
73	0xbe9412d4	-0.28920615
74	0xbcdaed23	-0.026724404
75	0xbd8b3c83	-0.06798651
76	0xbd3e57fd	-0.04647063
77	0xbdd238cf	-0.10264742
78	0x3e0f771a	0.14010277
79	0xbe81b838	-0.2533586
80	0xbe51f7ac	-0.20504636
81	0xbf099463	-0.53742045
82	0x3c9ec4a8	0.019380882
83	0x3e9a9ccf	0.3019776
84	0x3ef37f31	0.47557977
85	0xbe8bf822	-0.27337748
86	0x3e097e90	0.13427186
87	0xbdbc74fc	-0.092020005
88	0x00055c16	4.92212e-40
89	0x80057942	-5.02677e-40
90	0x80058105	-5.05461e-40
91	0x00056636	4.95844e-40
92	0x3d9c2a1d	0.0762522
93	0xbecb97b3	-0.39764175
94	0xbe121416	-0.14265475
95	0xbe38cc85	-0.18046768
96	0x80055b4c	-4.91929e-40
97	0x80055cad	-4.92423e-40
98	0x00055a6e	4.91618e-40
99	0x00055c4e	4.9229e-40
100	0x80058fa5	-5.10707e-40
101	0x80055cfd	-4.92535e-40
102	0x8005750b	-5.01165e-40
103	0x80056c19	-4.97956e-40
104	0x8c0beae0	-1.0778851e-31
105	0x0005599a	4.9132e-40
106	0x800559d8	-4.91407e-40
107	0x80055eef	-4.93233e-40
108	0xbe901216	-0.28138798
109	0x3d009f2f	0.03140181
110	0xbe50527b	-0.20343964
111	0xbd42014a	-0.04736451
112	0xbda012c7	-0.078160815
113	0xbed4d026	-0.41565055
114	0x3e7ec188	0.24878514
115	0xbe2f262a	-0.17104402
116	0x800558be	-4.91012e-40
117	0x80055de5	-4.9286e-40
118	0x000567a3	4.96355e-40
119	0x800588a7	-5.08199e-40
120	0x3dc47584	0.09592727
121	0x3ea2bb26	0.31783408
122	0x3d9c62a0	0.07635999
123	0xbb459946	-0.0030151173
124	0xbe8fec8b	-0.28110155
125	0xbca457d5	-0.020061413
126	0xbc933c11	-0.017972978
127	0x3d375115	0.04475506
128	0x3eaa21b1	0.3322883
129	0x3ea4f9ee	0.3222193
130	0x3d5c728b	0.053820174
131	0x3e22e016	0.15905795
132	0x3eafd299	0.3434036
133	0x3ed2c4f8	0.411659
134	0x3e801189	0.25013378
135	0x3ca235b4	0.019800998
136	0x3e9a2a98	0.3011062
137	0xbdf0c53b	-0.11756369
138	0xbc3d5512	-0.011555927
139	0xbcac0aad	-0.021001184
140	0x3ebf9887	0.37421057
141	0xbea7b838	-0.32757735
142	0x3e733489	0.2375051
143	0x3e20e0a6	0.15710697
144	0xb4986cbe	-2.8391327e-07
145	0xa6819c84	-8.993597e-16
146	0x88031aa5	-3.94527e-34
147	0x8a576d4a	-1.03724284e-32
148	0x3e49846f	0.19679426
149	0xbec5bfa1	-0.38622764
150	0x3e04cfdd	0.12969919
151	0xbdd5e93b	-0.10444876
152	0xbe33814a	-0.17529789
153	0xbec0b31e	-0.37636656
154	0x3c6df457	0.014523587
155	0x3adfaccd	0.0017065048
156	0xbcfefae9	-0.031125503
157	0x3f20f0d8	0.628675
158	0xbe8f2b4f	-0.2796273
159	0xbdebff04	-0.1152325
160	0xbd672d43	-0.05643965
161	0x3f0e31d1	0.55544764
162	0x3eab165e	0.33415502
163	0x3e3f8662	0.18703607
164	0x3c08eb3a	0.008356864
165	0xbd7f0727	-0.06226268
166	0x3e1b5d09	0.15172209
167	0x3e565d96	0.20934138
168	0xbd1edd5d	-0.038785327
169	0xbed40e33	-0.41417083
170	0x3e4488cc	0.19192809
171	0x3e094a44	0.13407236
172	0x800596a1	-5.13213e-40
173	0x80055a8b	-4.91658e-40
174	0x00055975	4.91269e-40
175	0x80055994	-4.91312e-40
176	0x800559f9	-4.91454e-40
177	0x80057661	-5.01644e-40
178	0x80056890	-4.96687e-40
179	0x00055d91	4.92743e-40
180	0x3d30392c	0.043023273
181	0xbe1ce4e7	-0.15321694
182	0x3dba20a5	0.09088258
183	0x3d42c49a	0.047550775
184	0xbe9d3144	-0.3070165
185	0x3d882a53	0.06648698
186	0x3dbd7df9	0.09252543
187	0xbe072980	-0.13199425
188	0xbe9a8b34	-0.3018433
189	0x3e27523a	0.1633996
190	0xbe4ec21f	-0.20191239
191	0x3cf417d9	0.029796528
192	0xbeb9fec7	-0.36327192
193	0x3e9ddd12	0.30832726
194	0xbbce3ac3	-0.006293626
195	0x3c75d162	0.015003534
196	0x3c18a07a	0.009315604
197	0xbd50e566	-0.05100002
198	0x3d34a471	0.044102136
199	0x3d1bb447	0.038013723
200	0xbdad8337	-0.08472293
201	0x3eacb20d	0.33729592
202	0x3e728e18	0.23687017
203	0xbda1c9cf	-0.0789982
204	0xbdd0adb0	-0.10189378
205	0x3db5a12a	0.0886863
206	0x3d1aa3c6	0.037753843
207	0xbc2d117a	-0.010563249
208	0x3f003b0a	0.50090086
209	0xbca7a6be	-0.020465251
210	0xbe562dec	-0.20915955
211	0xbe068080	-0.13134956
212	0x8005cad6	-5.31941e-40
213	0x8005742d	-5.00853e-40
214	0x80056086	-4.93804e-40
215	0x8005e5af	-5.41572e-40
216	0x00056f54	4.99114e-40
217	0x800567bd	-4.96392e-40
218	0x80056eea	-4.98966e-40
219	0x80055793	-4.90593e-40
220	0x8000558d	-3.069e-41
221	0x00055ae0	4.91777e-40
222	0x00055c17	4.92213e-40
223	0x00055b8e	4.92021e-40
224	0x3da593d7	0.08084839
225	0x3f327a7f	0.69718164
226	0x3eda7dbf	0.42674062
227	0xbe4a4008	-0.19750988
228	0x8006b56f	-6.16099e-40
229	0x800604ba	-5.52709e-40
230	0x8005a789	-5.19278e-40
231	0x80059fdc	-5.16524e-40
232	0x3d3ee359	0.046603534
233	0xbec4f935	-0.3847138
234	0x3e1774d2	0.14790657
235	0x3e32ae7c	0.17449373
236	0x009b0033	1.4234573e-38
237	0x007def07	1.1565184e-38
238	0x003e7b30	5.737992e-39
239	0x004c19df	6.988779e-39
240	0xbe0471bf	-0.12934016
241	0xbe83aa1d	-0.25715724
242	0xbdfc3563	-0.1231487
243	0xbeb4452d	-0.35209027
244	0x8005c5bd	-5.30113e-40
245	0x000583ea	5.065e-40
246	0x800580c0	-5.05364e-40
247	0x80068896	-6.00011e-40
248	0x3d6936be	0.05693697
249	0x3dd77faa	0.10522397
250	0x3cc22180	0.023697615
251	0xbc577256	-0.013149818
252	0x34153a98	1.3898023e-07
253	0xb24bf44a	-1.18717e-08
254	0x9ecacbe7	-2.1471914e-20
255	0xa51b2ee1	-1.345999e-16

net.0.bias f4 [128]
0	0xbeb2e4e9	-0.3494027
1	0x3e69fd86	0.22850618
2	0x3e9d0706	0.3066942
3	0x3f03fc89	0.51557213
4	0xbcb26b01	-0.021779539
5	0x3ea7d853	0.3278223
6	0x3e46f698	0.19430006
7	0x000010a8	5.975e-42
8	0x3eddf3c3	0.43350038
9	0x3eae90f3	0.34094962
10	0x3ea29e4e	0.31761402
11	0xbd0bbcda	-0.03411565
12	0xbe9fce20	-0.31211948
13	0x3eadf59e	0.33976454
14	0x8010881f	-1.518199e-39
15	0x3ecb4a73	0.39705238
16	0x3e3f2410	0.186661
17	0x3e7a95b9	0.24471177
18	0xbda45397	-0.08023756
19	0x3ee39717	0.4445121
20	0x3ecf02fc	0.40431964
21	0xbe392e34	-0.18084031
22	0x80055f09	-4.9327e-40
23	0x3e599dc8	0.21251595
24	0x8953339e	-2.5422471e-33
25	0x80055fe3	-4.93575e-40
26	0xa61e2a52	-5.4874617e-16
27	0x3ec1d441	0.3785725
28	0x3e4ec045	0.20190533
29	0x80062af3	-5.6642e-40
30	0x3da91bdd	0.082572676
31	0x3e8b15d2	0.27165085
32	0x3ea19205	0.31556717
33	0xbea6f603	-0.32609567
34	0xbe628fd0	-0.22125173
35	0x3eb3e51b	0.3513573
36	0xb7bd2180	-2.2546155e-05
37	0x3e884352	0.2661386
38	0x3dff0d98	0.12453765
39	0xbcc5c783	-0.024142986
40	0xbdd35648	-0.10319191
41	0xbd0ae116	-0.033906065
42	0x3de6883c	0.112564534
43	0x8005e27c	-5.40425e-40
44	0x800558a2	-4.90973e-40
45	0x3ebe4ff2	0.37170368
46	0x3e9314e2	0.2872687
47	0x3d752f0a	0.059859313
48	0x3e945809	0.28973415
49	0x3ebc6c1d	0.36801234
50	0x3c8ee8ec	0.01744505
51	0xbc32b552	-0.010907488
52	0xbe9491bf	-0.29017445
53	0x80065810	-5.82604e-40
54	0x800665eb	-5.87574e-40
55	0x9b53b644	-1.7512404e-22
56	0xbdefb9c3	-0.11705353
57	0x80055ee0	-4.93212e-40
58	0x3ddaef1c	0.10690138
59	0x00908c7b	1.3274706e-38
60	0x3eccc1dc	0.39991653
61	0x80055c62	-4.92318e-40
62	0x3e9272c1	0.28603175
63	0xb89ac843	-7.380594e-05
64	0x3e9a9b51	0.30196622
65	0x3e58ee25	0.21184595
66	0x80055d0b	-4.92555e-40
67	0x3d600316	0.054690443
68	0x3e1b5f2c	0.15173024
69	0x8735374a	-1.3633175e-34
70	0x3ef95e28	0.48704648
71	0xae49ad47	-4.585601e-11
72	0x80055ca9	-4.92418e-40
73	0x3ecb75eb	0.39738402
74	0x3dd2761c	0.10276434
75	0x95e5b3e3	-9.2776175e-26
76	0x3e57019a	0.20996705
77	0x3dc5cccf	0.09658205
78	0xbe9cc8dc	-0.30621994
79	0x3ef567d6	0.47930783
80	0xb8316d39	-4.230181e-05
81	0x3dc4d0dd	0.0961015
82	0x3eb1bb59	0.34713247
83	0x95213897	-3.2558333e-26
84	0xbb77a1bf	-0.0037785617
85	0x3e8ddabb	0.2770594
86	0x3e306fbe	0.17230126
87	0x800557ea	-4.90715e-40
88	0x3e685d2d	0.22691794
89	0x3e19019c	0.1494202
90	0x3e9329c8	0.28742814
91	0x3ecc89ec	0.39948976
92	0x8005e626	-5.41739e-40
93	0x800642f1	-5.75027e-40
94	0x3e9732f0	0.2953105
95	0x80056769	-4.96274e-40
96	0x3ebc68c5	0.36798683
97	0xa85dd972	-1.2315115e-14
98	0x3e1dec84	0.15422255
99	0x3e52f593	0.20601492
100	0x3ce463e9	0.027879672
101	0x80061bf0	-5.61035e-40
102	0xbdbe0699	-0.09278602
103	0x3e7b4588	0.24538243
104	0x3c3415dd	0.010991541
105	0x3e039b1c	0.12852138
106	0x3e86fc9e	0.26364607
107	0x8e0dc3be	-1.7473838e-30
108	0xbd81d941	-0.06340266
109	0x3d8ff3a2	0.07028891
110	0xad73a0bf	-1.3848644e-11
111	0xb5471ac6	-7.417224e-07
112	0xb9be9701	-0.0003635213
113	0xa72abb76	-2.3693862e-15
114	0x3e970ff4	0.2950436
115	0x3ad09ae6	0.0015915304
116	0xa17139c9	-8.1730454e-19
117	0x3e46ee80	0.19426918
118	0x3c0bc34f	0.008530452
119	0x3c3fbd4c	0.011702847
120	0xba59c2e1	-0.0008306932
121	0x9a01eae4	-2.6866318e-23
122	0x3e91b8a3	0.2846118
123	0x3e865756	0.26238507
124	0x3eb7e221	0.3591471
125	0xbb18847f	-0.0023272333
126	0x3e80e285	0.2517282
127	0xbd083b63	-0.03325976

net.2.weight f4 [128, 128]
0	0xbd25d308	-0.04048446
1	0x3c7b52d4	0.015339572
2	0x3c1ed95b	0.009695376
3	0x3c6b5f26	0.014365947
4	0xbd52bf0b	-0.051451724
5	0x3cf6593d	0.030071849
6	0x3d84fdfa	0.06493755
7	0x8006dcd3	-6.3023e-40
8	0x3ca7730e	0.020440605
9	0x3cc860d9	0.024460243
10	0xbc0dbeae	-0.008651419
11	0xbd2956d5	-0.041342575
12	0xbd417a3e	-0.04723572
13	0xbd2e2ae5	-0.042521376
14	0x000559f6	4.9145e-40
15	0x3d971d7b	0.0737867
16	0x3cb93e7a	0.022612799
17	0x3d18efd2	0.037338085
18	0xbd4f6d42	-0.050641306
19	0xbc400f01	-0.011722327
20	0x3d86fef5	0.06591598
21	0xbce64542	-0.028109197
22	0x00057b93	5.03508e-40
23	0x3d02a39e	0.03189432
24	0x00056257	4.94455e-40
25	0x00059568	5.12774e-40
26	0x800575e1	-5.01464e-40
27	0x3d17f53c	0.037099108
28	0x3d3ad13e	0.045609705
29	0x800562ce	-4.94622e-40
30	0x3bef29ff	0.0072987075
31	0x3d206788	0.039161235
32	0xbd6f5981	-0.058434967
33	0xbc9e6272	-0.019334052
34	0xbc87edef	-0.016592948
35	0x3da9bd87	0.082881026
36	0x00055d17	4.92572e-40
37	0xbcc09039	-0.02350627
38	0x3bfa855c	0.007645292
39	0xbd12d2da	-0.035845615
40	0xbd1a7623	-0.03771032
41	0xbc9270de	-0.017876085
42	0x3ca6cd8e	0.020361688
43	0x80056c03	-4.97925e-40
44	0x8005a4a5	-5.18241e-40
45	0x3d5de75e	0.054175727
46	0x3cec5e1f	0.028853474
47	0xbd3a3403	-0.04545976
48	0x3c91ff27	0.017821861
49	0xbc97b431	-0.01851854
50	0xbc4b4449	-0.012406417
51	0xbc75e834	-0.015008975
52	0xbd3b7015	-0.045761187
53	0x00066d33	5.90186e-40
54	0x8005e360	-5.40744e-40
55	0x00055ccf	4.92471e-40
56	0xbd70d629	-0.05879799
57	0x00055d10	4.92562e-40
58	0x3d04347f	0.032276627
59	0x800bd248	-1.085625e-39
60	0x3ae61481	0.0017553718
61	0x00058d35	5.09833e-40
62	0x3d55df8a	0.052215137
63	0x00055b69	4.91969e-40
64	0x3c4fee05	0.012691026
65	0x3d1793c5	0.03700616
66	0x80060230	-5.51798e-40
67	0xbbe14e32	-0.0068757767
68	0xbcd05199	-0.025429534
69	0x80056df4	-4.98621e-40
70	0x3d565f3f	0.052336928
71	0xaca238b9	-4.6106144e-12
72	0x00056b96	4.97772e-40
73	0x3d889a77	0.06670087
74	0xbd8b978a	-0.06816013
75	0x13bcbe40	4.7645473e-27
76	0xbd4f78ca	-0.050652303
77	0xbcf05bc2	-0.029340629
78	0xbbe468d2	-0.0069705034
79	0x3d2d6f94	0.042342737
80	0x80055bb3	-4.92073e-40
81	0x3d64e83a	0.05588553
82	0x3c2b9331	0.010472105
83	0x8005583d	-4.90831e-40
84	0x003c0d32	5.514863e-39
85	0x3c8c9921	0.017162861
86	0xbd5475d1	-0.05187017
87	0x00055935	4.91179e-40
88	0x3cd9a808	0.026569381
89	0xbbe34e64	-0.006936835
90	0xbc676dba	-0.014125282
91	0x3cf86e03	0.030325895
92	0x0005f2c6	5.46268e-40
93	0x800563be	-4.94958e-40
94	0xbc62e702	-0.013849022
95	0x0005753f	5.01237e-40
96	0x3bf98e3f	0.007615834
97	0x000557d0	4.90679e-40
98	0x3c9466db	0.018115452
99	0xbd2c5dce	-0.042081647
100	0xbb067773	-0.0020517975
101	0x00056f4e	4.99106e-40
102	0xbc9bf5f3	-0.019038176
103	0xbbc6851f	-0.0060583497
104	0xbb87e6f3	-0.0041474043
105	0x3d99ae3c	0.07503936
106	0x3d5e2c09	0.054241214
107	0x000558d6	4.91046e-40
108	0x3bfc68bb	0.0077029145
109	0xbbaa96bf	-0.0052059586
110	0x00055eb6	4.93153e-40
111	0x80055a32	-4.91533e-40
112	0x9100b37d	-1.0152729e-28
113	0x80056b6c	-4.97713e-40
114	0x3cc1dd6d	0.023665154
115	0x3c772e69	0.015086749
116	0x00055ecd	4.93186e-40
117	0x3c3ec0cb	0.011642645
118	0xbd0667e2	-0.032813914
119	0x3d1fac02	0.0389824
120	0x000559a5	4.91336e-40
121	0x00056418	4.95084e-40
122	0x3d0333e4	0.03203191
123	0x3c9ac48a	0.018892545
124	0xbcaf7d61	-0.02142209
125	0x8520a8c8	-7.554164e-36
126	0x3c5495af	0.0129751405
127	0xbd5c351f	-0.053761598
128	0x800568a2	-4.96713e-40
129	0x80062c8c	-5.66993e-40
130	0x80056026	-4.93669e-40
131	0x8005617b	-4.94147e-40
132	0x80064be5	-5.78239e-40
133	0x8005646f	-4.95206e-40
134	0x80055b95	-4.92031e-40
135	0x00058ce8	5.09725e-40
136	0x80056092	-4.9382e-40
137	0x0005613f	4.94063e-40
138	0x8005baa3	-5.2613e-40
139	0x8006086f	-5.54038e-40
140	0x00058d86	5.09947e-40
141	0x00055f2f	4.93323e-40
142	0x80056886	-4.96673e-40
143	0x80056133	-4.94046e-40
144	0x8005600f	-4.93637e-40
145	0x80056919	-4.9688e-40
146	0x8005949c	-5.12488e-40
147	0x80055800	-4.90746e-40
148	0x80056390	-4.94894e-40
149	0x0005a63b	5.1881e-40
150	0x800583c7	-5.0645e-40
151	0x000565f3	4.9575e-40
152	0x00057e00	5.04378e-40
153	0x80057082	-4.99538e-40
154	0x80057162	-4.99852e-40
155	0x00055ee4	4.93218e-40
156	0x00055943	4.91199e-40
157	0x8005a0a5	-5.16806e-40
158	0x80056d31	-4.98348e-40
159	0x0005674c	4.96233e-40
160	0x0005606e	4.9377e-40
161	0x80060a3f	-5.54689e-40
162	0x00064078	5.7414e-40
163	0x80055fc3	-4.9353e-40
164	0x0005772c	5.01928e-40
165	0x80056240	-4.94423e-40
166	0x80056e87	-4.98827e-40
167	0x80069790	-6.05383e-40
168	0x8005aa57	-5.20284e-40
169	0x80056805	-4.96493e-40
170	0x00055b75	4.91986e-40
171	0x80068df8	-6.01942e-40
172	0x80058d41	-5.0985e-40
173	0x80056a48	-4.97304e-40
174	0x800574da	-5.01096e-40
175	0x80058813	-5.07992e-40
176	0x80055a85	-4.9165e-40
177	0x00055d76	4.92705e-40
178	0x00059af0	5.14759e-40
179	0x80061e77	-5.61942e-40
180	0x80056e9b	-4.98855e-40
181	0x800584a1	-5.06756e-40
182	0x8005612e	-4.94039e-40
183	0x0005cb43	5.32094e-40
184	0x000581f8	5.05801e-40
185	0x80059075	-5.10999e-40
186	0x8005871e	-5.07648e-40
187	0x00059066	5.10978e-40
188	0x80055ac3	-4.91737e-40
189	0x80061338	-5.57907e-40
190	0x00056721	4.96173e-40
191	0x00059178	5.11362e-40
192	0x0005772f	5.01932e-40
193	0x80063715	-5.70773e-40
194	0x0005827b	5.05985e-40
195	0x80055817	-4.90778e-40
196	0x0005668f	4.95969e-40
197	0x80056711	-4.96151e-40
198	0x800561c3	-4.94248e-40
199	0x80055b4e	-4.91931e-40
200	0x80057d7e	-5.04196e-40
201	0x80055b5f	-4.91955e-40
202	0x00056c77	4.98087e-40
203	0x0005cce2	5.32676e-40
204	0x8005698e	-4.97043e-40
205	0x80060750	-5.53636e-40
206	0x800637c2	-5.71015e-40
207	0x8006a950	-6.11751e-40
208	0x0005de22	5.38864e-40
209	0x8005718e	-4.99913e-40
210	0x80060b22	-5.55007e-40
211	0x0005ce6d	5.33229e-40
212	0x800572a5	-5.00304e-40
213	0x80057058	-4.99479e-40
214	0x80058d73	-5.0992e-40
215	0x8005860c	-5.07264e-40
216	0x80057279	-5.00243e-40
217	0x00057706	5.01875e-40
218	0x00057140	4.99804e-40
219	0x800569ee	-4.97178e-40
220	0x80058b3f	-5.0913e-40
221	0x00056e2a	4.98697e-40
222	0x8005623b	-4.94416e-40
223	0x8005896b	-5.08474e-40
224	0x80056e63	-4.98777e-40
225	0x00057ff7	5.05083e-40
226	0x80055a48	-4.91564e-40
227	0x80055f32	-4.93327e-40
228	0x00057117	4.99746e-40
229	0x80057493	-5.00996e-40
230	0x0005ed9d	5.44417e-40
231	0x80059205	-5.1156e-40
232	0x8005e1a9	-5.40129e-40
233	0x8005866b	-5.07398e-40
234	0x800559fd	-4.91459e-40
235	0x0005cd25	5.3277e-40
236	0x8005ad38	-5.21317e-40
237	0x000558d1	4.91039e-40
238	0x800593d4	-5.12208e-40
239	0x8005d6cf	-5.36236e-40
240	0x00058c04	5.09406e-40
241	0x0005ab27	5.20575e-40
242	0x00057720	5.01911e-40
243	0x800629d4	-5.66018e-40
244	0x800596f1	-5.13325e-40
245	0x80057b1b	-5.0334e-40
246	0x800559c5	-4.91381e-40
247	0x800557cd	-4.90674e-40
248	0x80059bf9	-5.1513e-40
249	0x0005703a	4.99437e-40
250	0x800572a1	-5.00299e-40
251	0x00055f7c	4.93431e-40
252	0x000558ff	4.91103e-40
253	0x80058900	-5.08324e-40
254	0x8005659c	-4.95628e-40
255	0x000630d4	5.68529e-40

net.2.bias f4 [128]
0	0x3d328a25	0.043588776
1	0x00055a99	4.91678e-40
2	0xbd0f6db4	-0.03501673
3	0x3d48bf9c	0.049010858
4	0x00055c51	4.92294e-40
5	0x000557e2	4.90704e-40
6	0x3d00f04f	0.031479176
7	0xb24f4b22	-1.2066069e-08
8	0x3cf45fe3	0.029830879
9	0xba8baece	-0.0010656954
10	0x3d81ad7e	0.06331919
11	0x918b3471	-2.1962653e-28
12	0x3db70e84	0.089383155
13	0x83090f2d	-4.0278102e-37
14	0xac71771a	-3.4314275e-12
15	0x3d048bd4	0.032359913
16	0x97106d0a	-4.6666536e-25
17	0x000560ca	4.93899e-40
18	0x9815899f	-1.932728e-24
19	0x3d88d5bf	0.06681394
20	0xaa7ee9d1	-2.2640853e-13
21	0x9ba5de9f	-2.7440826e-22
22	0x3d82abda	0.06380434
23	0xbba093a5	-0.004900413
24	0x80067cfe	-5.95852e-40
25	0x00055d28	4.92596e-40
26	0x000561d7	4.94276e-40
27	0x3db87730	0.09007108
28	0x3d6f02fa	0.058352448
29	0xb984ea77	-0.00025351692
30	0x80056190	-4.94176e-40
31	0xbc9f698b	-0.019459506
32	0x9a0d40ac	-2.9210358e-23
33	0x00055d34	4.92612e-40
34	0x3d34e1da	0.0441607
35	0x3d32d4f5	0.043660123
36	0x3bc1bcf7	0.005912419
37	0x3c6b707a	0.014370078
38	0x3d9120f6	0.07086365
39	0xbd00c104	-0.031434074
40	0xbc2f7384	-0.010708693
41	0x3d21f803	0.039543163
42	0x3ce66593	0.028124606
43	0x000562d2	4.94628e-40
44	0x3d91b02d	0.07113681
45	0x3c4154ca	0.0118
46	0x3d6ba424	0.057529584
47	0x3d95ac70	0.073082805
48	0xbd80733c	-0.06271979
49	0xbc255df7	-0.010093204
50	0x3cd9ce96	0.026587766
51	0x00056226	4.94387e-40
52	0xbd20a544	-0.03922011
53	0x00055dee	4.92873e-40
54	0xbaf98e2e	-0.0019039565
55	0x8005579c	-4.90606e-40
56	0x00055849	4.90848e-40
57	0xb0450fae	-7.1690465e-10
58	0x3d4ece26	0.050489567
59	0x3d947ea2	0.07250716
60	0x8da54400	-1.01852805e-30
61	0xbc739210	-0.014866367
62	0x3c8f250d	0.017473722
63	0xbd10d884	-0.035362735
64	0x3d891c4f	0.066948526
65	0x00055d4a	4.92643e-40
66	0xbbc1a24e	-0.005909241
67	0x00056055	4.93735e-40
68	0xbcac8e50	-0.021063954
69	0xb301aac0	-3.019045e-08
70	0x00055ec5	4.93174e-40
71	0xbd0225af	-0.03177422
72	0xba07cda2	-0.0005180483
73	0x3c4752f1	0.012165771
74	0x3d100eed	0.035170484
75	0x928c4f21	-8.854749e-28
76	0x80055ef0	-4.93235e-40
77	0x84693f4a	-2.741808e-36
78	0x3c80e9a6	0.015736412
79	0x943e4c39	-9.607581e-27
80	0xbc704b7a	-0.0146664325
81	0x3d507b2a	0.05089871
82	0x000560b5	4.9387e-40
83	0x3d4f3d8d	0.05059581
84	0xbd46a471	-0.048496667
85	0x00055e79	4.93068e-40
86	0xbd81aeec	-0.06332192
87	0x3cc5fffa	0.02416991
88	0x84fded72	-5.9698073e-36
89	0x00056274	4.94496e-40
90	0x3cf242b0	0.029572815
91	0xbc8121d5	-0.015763203
92	0x3cc02550	0.023455292
93	0xbd5eaa5b	-0.054361682
94	0x3d98a812	0.07453932
95	0x000561c8	4.94255e-40
96	0x00055aea	4.91791e-40
97	0x3d86a100	0.06573677
98	0x000558e3	4.91064e-40
99	0x3d558897	0.052132215
100	0x3c94d989	0.018170135
101	0x3db9fd27	0.09081488
102	0x3ce29c6a	0.027662475
103	0xbab79b9d	-0.0014008168
104	0xaac56bf6	-3.5069143e-13
105	0x0005598d	4.91302e-40
106	0xbd194928	-0.037423283
107	0x3dc15d38	0.09441608
108	0xbd15032a	-0.03637997
109	0x3d42d7cf	0.047569092
110	0x3d309889	0.04311422
111	0x3d8d3265	0.068943776
112	0x9e417e04	-1.0243394e-20
113	0x3db73392	0.08945383
114	0x3d4127c6	0.04715707
115	0x80c10559	-1.7726169e-38
116	0x3d6f9df5	0.05850025
117	0x3da7a392	0.081854954
118	0x3db4b83e	0.08824204
119	0x3c91d53a	0.01780187
120	0x80055782	-4.9057e-40
121	0x92f71573	-1.5593179e-27
122	0x00055fec	4.93588e-40
123	0x00055e98	4.93111e-40
124	0x000559fb	4.91456e-40
125	0x3b49f85a	0.0030818195
126	0xabde5e29	-1.5800183e-12
127	0x95812935	-5.21677e-26

net.4.weight f4 [64, 128]
0	0x8956c338	-2.5851104e-33
1	0x000618a4	5.59852e-40
2	0x9e057712	-7.0655845e-21
3	0x80057c9f	-5.03883e-40
4	0x80059be3	-5.15099e-40
5	0x0005c5ad	5.3009e-40
6	0x80055734	-4.9046e-40
7	0x0005e912	5.42787e-40
8	0x80055826	-4.90799e-40
9	0x00055cbb	4.92443e-40
10	0xa48ef96b	-6.2005214e-17
11	0x000573df	5.00744e-40
12	0xa29dace0	-4.2737974e-18
13	0x0005fd0d	5.49955e-40
14	0x000651f2	5.8041e-40
15	0x00055897	4.90958e-40
16	0x000598e2	5.14022e-40
17	0x0005856e	5.07043e-40
18	0x0005b84b	5.2529e-40
19	0x800557e7	-4.90711e-40
20	0x80059754	-5.13464e-40
21	0x80056432	-4.95121e-40
22	0x9ef91850	-2.6373956e-20
23	0x9abfaff7	-7.9280035e-23
24	0x80059b3b	-5.14864e-40
25	0x80059c23	-5.15189e-40
26	0x0005a8cd	5.19732e-40
27	0xa23e6a9b	-2.5806238e-18
28	0x9f99e896	-6.51828e-20
29	0x00056426	4.95104e-40
30	0x00059de3	5.15817e-40
31	0x8974e199	-2.9476507e-33
32	0x80059cd3	-5.15435e-40
33	0x8005a6bc	-5.1899e-40
34	0x00055e93	4.93104e-40
35	0x00055bb0	4.92069e-40
36	0x9c578724	-7.13122e-22
37	0x00055bff	4.9218e-40
38	0x80056382	-4.94874e-40
39	0x80056aa3	-4.97432e-40
40	0x00055831	4.90815e-40
41	0x9acd43ce	-8.489556e-23
42	0x9bd609f1	-3.5409755e-22
43	0x0005587c	4.9092e-40
44	0xa26e65b6	-3.230886e-18
45	0x000558df	4.91058e-40
46	0xa6fff356	-1.7760136e-15
47	0x8a10eb43	-6.9775956e-33
48	0x00057339	5.00512e-40
49	0x80055d12	-4.92565e-40
50	0xa206df8b	-1.827873e-18
51	0x0005a6cf	5.19017e-40
52	0x80056eec	-4.98969e-40
53	0x80057e19	-5.04413e-40
54	0x8ae11a93	-2.1676708e-32
55	0x80056074	-4.93778e-40
56	0x0005f647	5.47525e-40
57	0x00058879	5.08135e-40
58	0xa081cb66	-2.1988048e-19
59	0x8e17e083	-1.8720285e-30
60	0x8006b9d5	-6.17677e-40
61	0x80055aef	-4.91798e-40
62	0x8da2ff8b	-1.0045541e-30
63	0x80055eca	-4.93181e-40
64	0x00056603	4.95772e-40
65	0x8005d00e	-5.33813e-40
66	0x00056ed6	4.98938e-40
67	0x0005672c	4.96189e-40
68	0x80055ca3	-4.92409e-40
69	0x800569f8	-4.97192e-40
70	0x80067be5	-5.95458e-40
71	0x0005692d	4.96907e-40
72	0x88d7b39e	-1.298207e-33
73	0x0005575f	4.9052e-40
74	0x0005577e	4.90564e-40
75	0x8005b77a	-5.24996e-40
76	0x0006baac	6.17978e-40
77	0x00057326	5.00485e-40
78	0xa29293b1	-3.9729754e-18
79	0x0005eacf	5.43411e-40
80	0x80055b31	-4.91891e-40
81	0x9759dd82	-7.0396064e-25
82	0x80059bdf	-5.15093e-40
83	0x93afde94	-4.439569e-27
84	0x9c037b21	-4.3503404e-22
85	0x800644af	-5.75652e-40
86	0x80055e6f	-4.93054e-40
87	0x800558d3	-4.91042e-40
88	0x80057592	-5.01354e-40
89	0x0005871d	5.07647e-40
90	0x9416be12	-7.6105494e-27
91	0x00055e25	4.9295e-40
92	0xa133f63b	-6.097344e-19
93	0x83c99d1f	-1.18497915e-36
94	0xa14862ab	-6.789322e-19
95	0x00058ab9	5.08942e-40
96	0x8005734d	-5.0054e-40
97	0xa21fa0bc	-2.163361e-18
98	0x0005ce12	5.33102e-40
99	0x80057c93	-5.03866e-40
100	0x0005630f	4.94713e-40
101	0xa3c30115	-2.11424e-17
102	0x9e08e886	-7.247865e-21
103	0x0005a36a	5.178e-40
104	0x00058f81	5.10657e-40
105	0x00057ec8	5.04658e-40
106	0x00055997	4.91316e-40
107	0xa8839eec	-1.4612843e-14
108	0x9d9fc327	-4.2288732e-21
109	0x92fe98dc	-1.6067336e-27
110	0x80056c28	-4.97977e-40
111	0x977e391b	-8.2143904e-25
112	0x00058148	5.05555e-40
113	0x0005599a	4.9132e-40
114	0x92fc2fd0	-1.5915223e-27
115	0x8005855e	-5.0702e-40
116	0x80055b6a	-4.9197e-40
117	0x970230e7	-4.206699e-25
118	0xa4450230	-4.271942e-17
119	0x00055a8b	4.91658e-40
120	0x800586f5	-5.07591e-40
121	0x8005d4f2	-5.35568e-40
122	0x800597f6	-5.13691e-40
123	0x80055a37	-4.9154e-40
124	0x80057ba2	-5.03529e-40
125	0x800574ba	-5.01051e-40
126	0x8005826c	-5.05964e-40
127	0x0005b13b	5.22756e-40
128	0xb83dce6f	-4.5253368e-05
129	0x80055b4e	-4.91931e-40
130	0xb934a426	-0.00017227288
131	0x00055a61	4.916e-40
132	0x000559ac	4.91346e-40
133	0x800560fc	-4.93969e-40
134	0xb6f37311	-7.25536e-06
135	0x8005893b	-5.08406e-40
136	0xb5da54d3	-1.6266953e-06
137	0xb59ee186	-1.1837553e-06
138	0xb98ab2a2	-0.00026454503
139	0x8005abec	-5.20851e-40
140	0xb98bcb10	-0.0002666344
141	0x8005596f	-4.9126e-40
142	0x80057564	-5.0129e-40
143	0xb75957cc	-1.295465e-05
144	0x00056713	4.96154e-40
145	0x80057efb	-5.0473e-40
146	0x80055f38	-4.93336e-40
147	0xa10713cc	-4.576598e-19
148	0x8005b0fb	-5.22666e-40
149	0x0005dd3d	5.38543e-40
150	0xb93e77e0	-0.00018164469
151	0xb91f61fc	-0.00015199924
152	0x00058125	5.05506e-40
153	0x00056f2c	4.99058e-40
154	0x000558b5	4.91e-40
155	0xb9da44b9	-0.00041631403
156	0xb9cc531a	-0.00038971828
157	0x80055f1c	-4.93296e-40
158	0x80056f1c	-4.99036e-40
159	0xb7d802bd	-2.5750482e-05
160	0x80055a63	-4.91602e-40
161	0x000562f9	4.94682e-40
162	0x9702248d	-4.20514e-25
163	0xb4696a0b	-2.1738394e-07
164	0xb9450127	-0.00018787813
165	0xb726ba76	-9.937785e-06
166	0xad32fd56	-1.01743804e-11
167	0xac2de377	-2.4711047e-12
168	0xb5d74430	-1.6038593e-06
169	0xb90eef03	-0.00013631214
170	0xb92835f4	-0.00016041828
171	0x0005813f	5.05542e-40
172	0xb9a8708b	-0.00032127308
173	0xb6f381b6	-7.2570647e-06
174	0xba08086c	-0.0005189243
175	0xb83f6d5a	-4.563979e-05
176	0x98e1217e	-5.8194955e-24
177	0xb6822e7b	-3.879713e-06
178	0xb95b4e2f	-0.00020914593
179	0x00055f61	4.93393e-40
180	0xb42307bc	-1.5183372e-07
181	0x80065c02	-5.84019e-40
182	0xb8ef445b	-0.0001140914
183	0x8005a96f	-5.19959e-40
184	0x00055b6c	4.91973e-40
185	0x00056a2c	4.97265e-40
186	0xb99cd6b9	-0.0002991462
187	0xb8a36dd8	-7.792906e-05
188	0x00059119	5.11229e-40
189	0xb5adf8b7	-1.296189e-06
190	0xb90140ae	-0.00012326494
191	0x9773783a	-7.866928e-25
192	0xb4b50907	-3.3720445e-07
193	0x80055b75	-4.91986e-40
194	0xa39268eb	-1.5873786e-17
195	0x80057707	-5.01876e-40
196	0xb40c8947	-1.3088457e-07
197	0x8026ab47	-3.551192e-39
198	0x80067df5	-5.96198e-40
199	0xad3710c9	-1.0406073e-11
200	0xb8c2bc6d	-9.285738e-05
201	0xb7b637d3	-2.1722086e-05
202	0xada8174a	-1.9109731e-11
203	0x80056a1c	-4.97242e-40
204	0x00061928	5.60037e-40
205	0x80055fef	-4.93592e-40
206	0xb99ba8ad	-0.00029689577
207	0x80061f10	-5.62156e-40
208	0xb70f72bf	-8.550181e-06
209	0xb882fd43	-6.246057e-05
210	0x000560c8	4.93896e-40
211	0xb8c0a9f0	-9.186927e-05
212	0xb97274df	-0.00023122456
213	0x00055e3c	4.92982e-40
214	0xad2de628	-9.885016e-12
215	0x00055c71	4.92339e-40
216	0x0005677b	4.96299e-40
217	0x00060cb5	5.55571e-40
218	0xb8b0037b	-8.392982e-05
219	0x80055d1a	-4.92576e-40
220	0xb9891c17	-0.00026151605
221	0xb94d534e	-0.00019581357
222	0xb9a34e50	-0.0003114813
223	0x80057264	-5.00213e-40
224	0x00056025	4.93668e-40
225	0xb9cf3d65	-0.0003952786
226	0x80055c96	-4.92391e-40
227	0x00055db6	4.92795e-40
228	0xb3793043	-5.8018724e-08
229	0xb9fac915	-0.00047833534
230	0xb988725d	-0.0002602515
231	0x8006b2b4	-6.1512e-40
232	0x00059203	5.11557e-40
233	0x00055fef	4.93592e-40
234	0x00055c39	4.92261e-40
235	0xb9fbdc74	-0.000480387
236	0xb9926f04	-0.00027930003
237	0xb89dbe09	-7.52174e-05
238	0xb10aa2e4	-2.0174236e-09
239	0xb8f546d9	-0.00011695707
240	0x00059e7a	5.16028e-40
241	0xb1b7fac0	-5.354508e-09
242	0xb8b96f81	-8.842257e-05
243	0x0005605c	4.93745e-40
244	0xb71c3f6e	-9.313093e-06
245	0xb866b27f	-5.500251e-05
246	0xb99055c9	-0.00027529735
247	0xb686f96d	-4.022548e-06
248	0x0005630d	4.9471e-40
249	0x80057727	-5.01921e-40
250	0x8005576b	-4.90537e-40
251	0x00055d37	4.92617e-40
252	0x00055f84	4.93442e-40
253	0xac056b8d	-1.896014e-12
254	0x000583ec	5.06502e-40
255	0x000558ea	4.91074e-40

net.4.bias f4 [64]
0	0xb2856061	-1.5527066e-08
1	0x3ae09567	0.0017134369
2	0x3d883945	0.06651548
3	0xb41aa289	-1.4401498e-07
4	0x3db2e029	0.087341614
5	0x3de5e624	0.112255365
6	0xb4e89e48	-4.3328532e-07
7	0x3d43b737	0.04778215
8	0xb787a696	-1.6170827e-05
9	0x9e57d482	-1.1425951e-20
10	0x3dc688e9	0.09694082
11	0x9859218c	-2.806353e-24
12	0x3cd8847f	0.026430367
13	0x3d3a019e	0.0454117
14	0x9fbe9429	-8.071324e-20
15	0xbd30b1a6	-0.04313817
16	0x3c93e0b3	0.01805148
17	0x3d4f1fcb	0.05056743
18	0xbd789d65	-0.060696978
19	0xbc64d32e	-0.013966365
20	0x3cfe7acc	0.031064413
21	0x3d1c3768	0.038138777
22	0xaca791d6	-4.7626165e-12
23	0xb11ed5a2	-2.3113462e-09
24	0x3d342c82	0.04398776
25	0x3df13145	0.117769755
26	0xb5054456	-4.9645803e-07
27	0xbd9d84e9	-0.07691366
28	0xb5de6a06	-1.6571146e-06
29	0xbd276708	-0.040869743
30	0x3d47ec3d	0.04880928
31	0xbd218940	-0.039437532
32	0xacf6df60	-7.01654e-12
33	0x3ae039a8	0.0017107027
34	0xb6793027	-3.713192e-06
35	0x9fba0d6a	-7.8796256e-20
36	0x3d1b5283	0.037920486
37	0xb7b1ff40	-2.1218904e-05
38	0x3dc4b6a5	0.09605149
39	0xb6500d53	-3.100217e-06
40	0x80d251db	-1.9314818e-38
41	0xae4931de	-4.57464e-11
42	0x3dbe831d	0.093023516
43	0x3d13aeb5	0.036055285
44	0xb01f6430	-5.798624e-10
45	0x3da66dd2	0.08126415
46	0xbd42ab7b	-0.047526818
47	0xbc5d95e0	-0.0135245025
48	0xb62b91b7	-2.5565803e-06
49	0x3d70570b	0.05867676
50	0xab22651e	-5.769429e-13
51	0x3d80a4a1	0.062814005
52	0xa567d589	-2.0108405e-16
53	0xa5aea079	-3.029293e-16
54	0x8c9dcc9a	-2.431282e-31
55	0xba3e3dc8	-0.0007257131
56	0xbc22cdbd	-0.009936747
57	0x998e93b2	-1.474211e-23
58	0xbc9718bb	-0.01844441
59	0xb67bd5fa	-3.7526465e-06
60	0x99fcc5b2	-2.6136038e-23
61	0x868f0593	-5.379881e-35
62	0x3d68920e	0.056779914
63	0x39d4e1c4	0.00040604

net.6.weight f4 [2, 64]
0	0xba3fe218	-0.00073197624
1	0xba916320	-0.0011092164
2	0xbe5f3421	-0.2179723
3	0x33babd4b	8.695732e-08
4	0xbe05f59a	-0.13081971
5	0xbd68d668	-0.0568451
6	0xb0a5601a	-1.2032644e-09
7	0xbd09e12f	-0.033662017
8	0xb94948e2	-0.00019196005
9	0x2bb1b191	1.2625891e-12
10	0x3dee3581	0.11631299
11	0xb5cd0f54	-1.5278151e-06
12	0xbdb0bbf2	-0.08629598
13	0x3da42284	0.08014396
14	0xb00ac31f	-5.048139e-10
15	0x3d364309	0.044497523
16	0x3e24b570	0.16084838
17	0x3dd9a91f	0.106279604
18	0xbedcb1df	-0.43104455
19	0x3e266b72	0.16251925
20	0x3e6d8f4d	0.23199196
21	0x3ddf04fa	0.10889621
22	0x28da22f9	2.4218029e-14
23	0xb770cab7	-1.4352313e-05
24	0xbc6cbbdb	-0.014449085
25	0x3cf98cbb	0.030462613
26	0xbb08d1e5	-0.002087706
27	0x3ee9604b	0.45581278
28	0x37dd6001	2.6389958e-05
29	0x3e83e5e3	0.25761327
30	0xbdc70118	-0.097170055
31	0xbd9eb6a2	-0.07749678
32	0xb433a7d4	-1.673173e-07
33	0xbe2a3dbb	-0.16625111
34	0x3a600bcc	0.000854668
35	0x29b75321	8.141253e-14
36	0xbd891c2e	-0.06694828
37	0xb9b4f13c	-0.0003451201
38	0xbe06ab87	-0.1315137
39	0xba00f804	-0.00049197697
40	0xa081de48	-2.2000543e-19
41	0xba3a8c3d	-0.0007116234
42	0xbc9e2e9f	-0.01930934
43	0xbe79dd59	-0.24400844
44	0x26fa1975	1.7354135e-15
45	0x3e04b177	0.12958322
46	0xbed4f5a9	-0.41593674
47	0xbdc5887e	-0.096451744
48	0xb46853c0	-2.1637152e-07
49	0xbc8dd8f1	-0.01731536
50	0x8005604a	-4.9372e-40
51	0x3e1904b4	0.149432
52	0xb743638a	-1.16460815e-05
53	0x0deb3d02	1.449768e-30
54	0x80055e36	-4.92974e-40
55	0x39d21f9a	0.00040077866
56	0xbe193854	-0.14962894
57	0x00055f87	4.93446e-40
58	0xbe41da47	-0.18930922
59	0x38e51db9	0.00010925107
60	0x8005594e	-4.91214e-40
61	0xb714d4df	-8.87105e-06
62	0x3dde7335	0.10861818
63	0xbd77690a	-0.060402907
64	0x3a176891	0.00057757745
65	0xbb5ec919	-0.0033994375
66	0x3dce6441	0.10077716
67	0xb40adbe2	-1.2932244e-07
68	0x3e2af35a	0.16694394
69	0x3e135902	0.14389423
70	0x34a7a2cb	3.1224621e-07
71	0x3db3486a	0.08754046
72	0x3aaf6c98	0.0013383804
73	0xaccde81d	-5.85222e-12
74	0x3dc7d0ac	0.09756598
75	0xb3d817f2	-1.00626394e-07
76	0x3dda6490	0.10663712
77	0x3dd5c862	0.104386106
78	0xb1690a4d	-3.3911818e-09
79	0x3e64c324	0.22340065
80	0x3e0dc977	0.13846384
81	0x3e28152a	0.16414323
82	0x3e5255e8	0.20540583
83	0xbe242211	-0.1602862
84	0x3cf93f5b	0.030425718
85	0x3db27eea	0.08715613
86	0xa8c5d7db	-2.1965006e-14
87	0x39229852	0.00015506268
88	0x3df600e5	0.12011889
89	0x3e2e1b5e	0.17002627
90	0xbb527f7c	-0.0032119444
91	0x3dbdec83	0.09273627
92	0xba6c5f10	-0.0009016851
93	0x3e09ed07	0.13469325
94	0x3e101196	0.14069209
95	0x3e9264d7	0.2859256
96	0x36144d5e	2.2098752e-06
97	0xbd38531a	-0.045001127
98	0x3a4c326e	0.0007789497
99	0x27547e60	2.9489418e-15
100	0x3d51ede7	0.051252272
101	0x39ff6e5e	0.0004871962
102	0x3dffaa8a	0.124836996
103	0x392555cf	0.00015767592
104	0x28eadf59	2.607608e-14
105	0x395bbf01	0.00020956622
106	0x3e104edf	0.14092587
107	0x3db19d57	0.08672588
108	0xacafb14b	-4.9934826e-12
109	0x3dc9bd5e	0.09850572
110	0xbe54d1c8	-0.2078315
111	0x3e1e0483	0.15431409
112	0x389a0f46	7.346137e-05
113	0x3e076c50	0.13224912
114	0xab812a96	-9.177821e-13
115	0x3daed180	0.08536053
116	0x324b4ca0	1.1833578e-08
117	0x96754451	-1.9812499e-25
118	0x800557dc	-4.90695e-40
119	0x3a8e2349	0.0010844256
120	0x3cdab431	0.02669725
121	0x83be6526	-1.1190419e-36
122	0x3db7e307	0.08978849
123	0xba1eadd5	-0.00060531247
124	0x00055ca1	4.92406e-40
125	0xa8304118	-9.7840776e-15
126	0x3dfe70e9	0.1242388
127	0x3e2678d8	0.16257036

net.6.bias f4 [2]
0	0x3dc8a44d	0.09796963
1	0x3dae794f	0.085192315
