Deployment/resources/regression.pt (torch, 106307 bytes, 8 tensors)

net.0.weight f4 [128, 4]
0	0xbe5758ef	-0.21030019
1	0xbeacafc3	-0.33727846
2	0xbf2f0ea4	-0.68381715
3	0xbfb6eda9	-1.4291278
4	0xb3bf03b3	-8.8948035e-08
5	0xae1bea65	-3.5451104e-11
6	0xa12aea8c	-5.790866e-19
7	0xa2ad9947	-4.7054033e-18
8	0xab845929	-9.403911e-13
9	0x9b202f42	-1.325016e-22
10	0x00055fc5	4.93533e-40
11	0x000505ab	4.61211e-40
12	0x3eb83c42	0.35983473
13	0xbe43c1bc	-0.19116873
14	0x401b3e08	2.425661
15	0xbf45fa90	-0.77335453
16	0xc036d9ba	-2.857039
17	0xbc4a85cc	-0.012361001
18	0x3f4051d5	0.75124866
19	0x3f039395	0.5139707
20	0xbe82e66b	-0.2556642
21	0xbf4547c4	-0.7706263
22	0x3ebd30c3	0.36951265
23	0x3f99529a	1.1978333
24	0x3c870a02	0.016484264
25	0xbf5fcaaa	-0.87418616
26	0xbf2ccd89	-0.6750112
27	0xbf698e80	-0.9123306
28	0x3ed5c28d	0.41749993
29	0x3f72e4c0	0.94880295
30	0xbf82a71d	-1.0207249
31	0xbf817a39	-1.0115424
32	0xbab23958	-0.0013597412
33	0xba82ed99	-0.0009989023
34	0xba7d8dd4	-0.0009672318
35	0xba823eb2	-0.0009936898
36	0xb821943a	-3.8523438e-05
37	0xace0d9d7	-6.390648e-12
38	0x9e95a838	-1.5845562e-20
39	0x98ceda20	-5.347e-24
40	0xbe1eef05	-0.15520866
41	0x3e2d15b6	0.16902813
42	0x3f8e65e9	1.112485
43	0xbf92e82c	-1.1477103
44	0xbf40c339	-0.75297886
45	0x3ee9a679	0.4563482
46	0xbf51dc93	-0.81977195
47	0xbee051cc	-0.43812406
48	0xa961da02	-5.0149128e-14
49	0x99e20694	-2.3370509e-23
50	0x00055b69	4.91969e-40
51	0x803fb2e6	-5.849813e-39
52	0x3c9f50f0	0.019447774
53	0x3d65295d	0.05594765
54	0x3f89f307	1.0777291
55	0xbfc17695	-1.5114313
56	0xbdcbf8de	-0.09959577
57	0xbf8e8ae4	-1.1136136
58	0x3f3a683d	0.72815305
59	0xbdacbb23	-0.08434131
60	0xbac181fe	-0.0014763472
61	0xb987a4eb	-0.0002587208
62	0x364aab39	3.020001e-06
63	0xb85f6124	-5.3257812e-05
64	0xbe7dd62d	-0.24788733
65	0xbea0adfb	-0.31382737
66	0x3f829e1e	1.0204504
67	0xbfb45993	-1.4089836
68	0xbb3d9570	-0.0028928183
69	0xbb8254b5	-0.003977383
70	0xb9c998ca	-0.00038451544
71	0xbb107e4a	-0.002204793
72	0xbeec7162	-0.46180254
73	0x3f1abff0	0.60449123
74	0x3f0f3cd1	0.55952173
75	0x3e892ade	0.26790518
76	0xc0572ef9	-3.362242
77	0x3e7399b4	0.23789102
78	0xbe6c8952	-0.23099259
79	0x3ed97105	0.4246904
80	0x3e29a95f	0.16568516
81	0xbc850328	-0.016236857
82	0x3f4e28cb	0.80530995
83	0xbedac2d1	-0.42726758
84	0xbb41dbaa	-0.0029580393
85	0xbb3befa7	-0.002867678
86	0xbb2bd3f6	-0.0026218868
87	0xbb3a3925	-0.0028415408
88	0xb4b960ae	-3.452928e-07
89	0xb6bf6ff7	-5.705278e-06
90	0xadcdb71d	-2.338712e-11
91	0xb2e5e27d	-2.6762104e-08
92	0xbb0b5bf4	-0.0021264525
93	0xbba85b8f	-0.0051378678
94	0xbb97261a	-0.0046126964
95	0xbba4b35e	-0.005026265
96	0x3f1003be	0.5625571
97	0xbda659cf	-0.081225984
98	0x3ee829bd	0.45344344
99	0x3f3c1240	0.7346535
100	0xba906f26	-0.0011019453
101	0x3a08ce83	0.0005218761
102	0xb8a84a1b	-8.0246675e-05
103	0x39e73988	0.00044102618
104	0xba83333d	-0.0010009777
105	0xbb2a4553	-0.0025981262
106	0xbabb4c5e	-0.0014289727
107	0xbafb967d	-0.0019194629
108	0x3e9a15a9	0.3009465
109	0xbd0a012f	-0.033692535
110	0xbf2c28ab	-0.67249554
111	0xbfab09c7	-1.3362359
112	0xbe8fe19c	-0.28101814
113	0x3eed2850	0.46319818
114	0xbf9356be	-1.1510847
115	0xbf948cc8	-1.1605463
116	0xbd3c2973	-0.045937967
117	0xbf519142	-0.8186227
118	0xbebb1947	-0.36542723
119	0x3fa9866a	1.3244145
120	0x3f165abf	0.5873222
121	0xbf20cbe6	-0.62811124
122	0x3f9bad43	1.216225
123	0x3f43e288	0.76517534
124	0x3cbe235d	0.023210222
125	0xbf01abdb	-0.50652856
126	0xbf53734a	-0.8259779
127	0x3f9d9d41	1.2313615
128	0xbe1a3218	-0.15058172
129	0x3f3f90c3	0.74830264
130	0x3e5a5bd6	0.21324095
131	0xbf8cf1f8	-1.1011343
132	0xbd519289	-0.051165137
133	0x3e0afd6c	0.13573235
134	0xbf9a3f2c	-1.2050529
135	0xbfcc9477	-1.5982808
136	0x3e94a264	0.29030144
137	0x3f51dff2	0.8198234
138	0xbf8d15f6	-1.1022327
139	0xbf5e917d	-0.8694075
140	0x3ea416e4	0.32048714
141	0x3f4f5259	0.8098503
142	0xbf2ba543	-0.67049044
143	0xbe4ef495	-0.20210488
144	0x9cb0cc90	-1.1699581e-21
145	0xa7f38fec	-6.760209e-15
146	0x00055e48	4.92999e-40
147	0xa02299e9	-1.3772858e-19
148	0x3e866d34	0.2625519
149	0x3de4efac	0.11178526
150	0x3f2255a5	0.63411933
151	0xbfb5dece	-1.420862
152	0x3a383ca0	0.0007028077
153	0xbaf980f5	-0.0019035625
154	0xbad3d183	-0.0016160462
155	0xbb1a5c31	-0.0023553486
156	0xbb8425a5	-0.004032808
157	0xbb8f2348	-0.0043682195
158	0xbb4b2d00	-0.0031002164
159	0xbb956f3a	-0.0045603784
160	0xbb020e6e	-0.0019845027
161	0xbb021687	-0.0019849853
162	0xbb02084d	-0.0019841373
163	0xbb020ee2	-0.0019845297
164	0xbb092699	-0.0020927547
165	0xbb028871	-0.0019917751
166	0xbabea551	-0.0014545118
167	0xbb192e14	-0.0023373412
168	0xbfb8d096	-1.4438655
169	0x3cff8580	0.031191587
170	0x3e8dd38b	0.27700457
171	0xbe368210	-0.17823052
172	0xbed1cc11	-0.40976003
173	0xbf60f747	-0.87877315
174	0x3faaab03	1.3333439
175	0x3f3bba02	0.733307
176	0x3e95a0a6	0.29224128
177	0x3e1b9240	0.15192509
178	0x3f3e1a9c	0.7425935
179	0xbfb7c04d	-1.435556
180	0xbaf70249	-0.0018845286
181	0xba070327	-0.0005150311
182	0xba950d9a	-0.0011371851
183	0xba14c7e8	-0.00056755403
184	0x3f008f97	0.502191
185	0x3ef64733	0.48101196
186	0xbf0bf351	-0.54668146
187	0xbf041605	-0.515961
188	0x000560ca	4.93899e-40
189	0x92022624	-4.106778e-28
190	0x00055931	4.91173e-40
191	0x00055a47	4.91563e-40
192	0xbcc7444c	-0.024324559
193	0x3e07a34e	0.1324589
194	0x3f8e661b	1.112491
195	0xbe96d46d	-0.29458943
196	0x1378b63a	3.1391845e-27
197	0x00055e5f	4.93031e-40
198	0x00055d3c	4.92624e-40
199	0x000558a9	4.90983e-40
200	0x3a4d2bac	0.0007826637
201	0xbb2219af	-0.0024734547
202	0xbb4c91e0	-0.0031214878
203	0xbb17f8a9	-0.0023188984
204	0xbf03a5d3	-0.514249
205	0x3f0d70ea	0.5525042
206	0xbf20f8eb	-0.6287982
207	0xbf9a41cf	-1.2051333
208	0xbe2df639	-0.16988458
209	0xbe8593c7	-0.26089308
210	0x3f9f49e0	1.244442
211	0x3f371bf8	0.7152705
212	0x3e2f3709	0.17110838
213	0x3f34ab05	0.70573455
214	0xbee2136e	-0.4415545
215	0xbf2e9bcc	-0.6820648
216	0x3e0c12e8	0.13679087
217	0x3e910c45	0.28329673
218	0x3f5986e8	0.84971476
219	0xbfc37f25	-1.5273176
220	0x3d844982	0.06459333
221	0x3f5c77ae	0.86120117
222	0xbfcdcc19	-1.6077911
223	0xbfab1f62	-1.3368952
224	0x3dc017a0	0.09379506
225	0x3f44a647	0.7681622
226	0xbeba44ec	-0.36380708
227	0xbf843d70	-1.0331249
228	0x3c6ab977	0.014326445
229	0xbf71e263	-0.94486064
230	0x4006cc5b	2.1062229
231	0xbdeefdfb	-0.11669537
232	0xbab3ced1	-0.0013718252
233	0xbb1b5f83	-0.0023708052
234	0xba09d12b	-0.0005257304
235	0xbaa2ccf3	-0.0012420699
236	0xba334abc	-0.00068394444
237	0xb92dda7d	-0.00016579959
238	0xb4a56be8	-3.0812157e-07
239	0xb72a1ac1	-1.0139019e-05
240	0xac35e4a1	-2.5848562e-12
241	0xaa58ea38	-1.9265915e-13
242	0x90409477	-3.7979697e-29
243	0x9ad0ec66	-8.6408706e-23
244	0x3f054f9a	0.5207459
245	0xbf8d6d7a	-1.1049035
246	0xbf7c538a	-0.9856497
247	0xbf5863f3	-0.8452751
248	0x3e56385f	0.20919941
249	0xbf4ccabd	-0.79996854
250	0x3e230aaa	0.15922037
251	0x3fad5dbe	1.3544233
252	0x3ea012af	0.31264254
253	0xbf668496	-0.9004606
254	0x3f60dfcf	0.87841505
255	0xbf2f8b6a	-0.68572104

net.0.bias f4 [128]
0	0x3eadfa40	0.33979988
1	0xb8026f15	-3.109787e-05
2	0xb273d464	-1.4192754e-08
3	0xbe276a27	-0.16349088
4	0x3d6ab221	0.057298783
5	0x3e420608	0.18947613
6	0x3ef14131	0.4712005
7	0xbe63b61a	-0.22237435
8	0xba9e6272	-0.0012083782
9	0xb840de42	-4.598336e-05
10	0x3d2d6de6	0.042341135
11	0x3e8a8abf	0.2705898
12	0xafc97f40	-3.6652104e-10
13	0x3d175f07	0.03695586
14	0x3e43d193	0.19122915
15	0xba98d194	-0.0011659139
16	0x3e864d8b	0.26231036
17	0xbac2e7b8	-0.0014870083
18	0xbead40a1	-0.3383837
19	0x3ddd9bb4	0.10820714
20	0xbd0ac172	-0.03387589
21	0xbb50b01a	-0.0031843246
22	0xb937b4c3	-0.00017519579
23	0xbb0e4289	-0.0021707139
24	0xbf02b589	-0.5105825
25	0xbb0f2032	-0.0021839258
26	0xbb381803	-0.0028090484
27	0x3dbf33e3	0.093360685
28	0x3e7ef94e	0.2489979
29	0x3dfc9b1f	0.123342745
30	0xbed3571d	-0.412774
31	0x3d89bce2	0.0672548
32	0xbd21f5f8	-0.039541215
33	0x3e7a24a7	0.24428044
34	0xbe7b9a4d	-0.2457058
35	0xbec9584e	-0.39325184
36	0xaf3e1837	-1.7289002e-10
37	0x3dad494c	0.08461246
38	0x36e1d074	6.7297897e-06
39	0xbb438ed9	-0.0029839783
40	0xbb02184e	-0.0019850913
41	0xbb365468	-0.0027821306
42	0x3e9a32ab	0.30116782
43	0x3e411990	0.18857408
44	0xbd1ccf05	-0.038283367
45	0xbb0af0d0	-0.0021200664
46	0xbe96ce0a	-0.2945407
47	0xac3b9d75	-2.6661705e-12
48	0xbe339853	-0.17538576
49	0xa449a8d3	-4.3727927e-17
50	0xb8660132	-5.4837386e-05
51	0x3e9a9ade	0.3019628
52	0xbd7d7d64	-0.06188716
53	0xbe1151d1	-0.14191367
54	0x3ca3eb8e	0.020009782
55	0x3dcc8f19	0.09988231
56	0xbd466ad1	-0.04844171
57	0xbc85ab70	-0.0163171
58	0xbb56a913	-0.0032754585
59	0xbabcd209	-0.0014405857
60	0xb490ff78	-2.7007968e-07
61	0x3db3818d	0.08764944
62	0xbd7088ed	-0.058724333
63	0x3dac15f3	0.08402624
64	0x9e40d638	-1.0208695e-20
65	0xbec13537	-0.37735912
66	0xbf35e25a	-0.7104851
67	0xbde780ce	-0.113038644
68	0xb69eed2a	-4.7363765e-06
69	0x3d90ebfd	0.07076261
70	0xbb895148	-0.0041905977
71	0xbe1c5b82	-0.15269282
72	0xbae10083	-0.001716629
73	0xbd8c9a1f	-0.06865334
74	0xbea1b4ef	-0.31583354
75	0x3dc972cc	0.09836349
76	0xbab4a975	-0.0013783412
77	0x3eba6586	0.3640558
78	0x3e3d5be9	0.18492092
79	0x3ddec17f	0.1087675
80	0x3e17b8b5	0.14816554
81	0xbb01b76c	-0.0019793166
82	0x3d52575d	0.051352847
83	0xb4e6766d	-4.2927005e-07
84	0xbbf1b0a8	-0.0073757954
85	0xbb0cb9e3	-0.0021473102
86	0xbb657688	-0.0035013277
87	0xbe35c48f	-0.17750762
88	0xbc9f01d4	-0.019410051
89	0x3e236828	0.15957701
90	0xbb2dba34	-0.002650869
91	0xbe8a9473	-0.27066383
92	0x3decd829	0.11564667
93	0xbe96a238	-0.29420638
94	0xbbf532cc	-0.007482862
95	0xbafa78ea	-0.0019109522
96	0x3e09d63c	0.1346063
97	0x3ddd2fe7	0.10800152
98	0xbf4ff981	-0.8124009
99	0xbabf8e66	-0.0014614582
100	0xbabef88f	-0.0014569926
101	0xbe89884f	-0.26861808
102	0xb9ea4660	-0.00044684391
103	0xbbfa3ad7	-0.007636409
104	0xa1f74389	-1.6755247e-18
105	0xbafaf3bb	-0.0019146124
106	0xbec4fbe4	-0.38473427
107	0x3eca9ec9	0.39574268
108	0x3ebb3916	0.3656699
109	0xbeafccbb	-0.34335884
110	0x8b00101e	-2.4664029e-32
111	0x3b60958a	0.003426882
112	0x3cd7ceab	0.026343664
113	0xbedb3f70	-0.42821836
114	0xbdf6c1d7	-0.12048691
115	0xbddcc1e6	-0.10779171
116	0xbb68e866	-0.003553891
117	0x3e9b113f	0.30286595
118	0x3e5e84ae	0.21730301
119	0xbf08c7df	-0.5342998
120	0xba418fb0	-0.0007383777
121	0xbbd36a74	-0.006451899
122	0xbe93e9cd	-0.28889313
123	0xbab1d0cc	-0.0013566255
124	0xbec60931	-0.38678887
125	0xbd4d4690	-0.05011612
126	0x3d6efed7	0.058348503
127	0xbad81e6e	-0.0016488561

net.2.weight f4 [128, 128]
0	0xbfbadb70	-1.4598217
1	0x00055c6f	4.92336e-40
2	0x00055e3d	4.92984e-40
3	0xbf90d43a	-1.1314766
4	0x401473c6	2.3195662
5	0x3c9eb2bd	0.019372338
6	0x3e71b06a	0.23602453
7	0x3f1f639e	0.6226138
8	0xb9d77566	-0.00041095464
9	0x00056b73	4.97723e-40
10	0x3d39cf49	0.0453637
11	0x3dcca470	0.099923015
12	0x00055edb	4.93205e-40
13	0xbf3fac9f	-0.74872774
14	0x3e2c71d8	0.16840303
15	0xa8162992	-8.335687e-15
16	0xbf0a833c	-0.541065
17	0x00055eea	4.93226e-40
18	0x3f277397	0.6541075
19	0x40112f16	2.268499
20	0x3cf04ad0	0.029332548
21	0x3b0b7c89	0.0021283946
22	0x0003a93d	3.36218e-40
23	0x3a4d2464	0.0007825552
24	0x3e752c7c	0.2394275
25	0x382db87b	4.1418225e-05
26	0xb96239a0	-0.00021574507
27	0x3e8bd0b7	0.27307674
28	0xbe8a6efc	-0.270378
29	0xbefaa90f	-0.48957106
30	0xbd274132	-0.04083366
31	0xbf37040c	-0.7149055
32	0xbec97d59	-0.39353445
33	0xc018ec64	-2.3894281
34	0xc0d170c8	-6.5450172
35	0x3dea41da	0.114383414
36	0x000467e9	4.04618e-40
37	0x3e3f7319	0.1869625
38	0x3b878da8	0.00413676
39	0x3ad8e546	0.0016547821
40	0x91a314f2	-2.5729774e-28
41	0x3a924cef	0.0011161844
42	0xbc4abb80	-0.012373805
43	0x3f1b6f00	0.6071625
44	0x3eff4ac0	0.49861717
45	0xbb448047	-0.0029983686
46	0x3f0137b2	0.5047561
47	0xacb5953d	-5.160898e-12
48	0x3cdf01c1	0.027222516
49	0x80055891	-4.90949e-40
50	0xbae21a19	-0.0017250209
51	0xbe97c22d	-0.29640332
52	0x3f7e6f59	0.99388653
53	0xbe6a9547	-0.22908507
54	0xbe87c5bc	-0.26518047
55	0x3de02450	0.10944426
56	0x3d2b00f9	0.041748974
57	0x3e8f7b4e	0.28023762
58	0x39627e5b	0.0002160011
59	0x0a181516	7.3224996e-33
60	0x80055ffa	-4.93607e-40
61	0xbfb91a88	-1.4461222
62	0xbe9391ab	-0.28822073
63	0xbf4e8c13	-0.80682486
64	0x00055e75	4.93062e-40
65	0x3ccf2f33	0.025291061
66	0xbe405172	-0.18781069
67	0x3dfafd7a	0.12255378
68	0x00055f44	4.93352e-40
69	0xbfa46f8d	-1.2846543
70	0xbb76bfc5	-0.0037650925
71	0x3f1c1bda	0.6098
72	0x3afbd036	0.0019211832
73	0x3d81be23	0.06335094
74	0xbeb183b2	-0.34670788
75	0x3f8779be	1.0584028
76	0xb9fa731d	-0.00047769482
77	0x3f4160b6	0.75538194
78	0x3e0b7b28	0.13621199
79	0x3d6c0118	0.05761823
80	0xbd8d68fe	-0.06904791
81	0xbad0e3ef	-0.001593707
82	0x3ec74225	0.38917652
83	0x000557d0	4.90679e-40
84	0xbee82454	-0.45340216
85	0x213db896	6.427999e-19
86	0xbad4dca3	-0.0016240071
87	0x3ec893c6	0.39175242
88	0x3ee6c433	0.45071563
89	0x3f57552d	0.8411434
90	0xbadcae85	-0.0016836679
91	0xbeec8b51	-0.4620004
92	0x3fd48923	1.6604351
93	0xbe542a8a	-0.20719352
94	0xbf4dda9d	-0.804117
95	0x3aefe0b8	0.0018301224
96	0xbf711b74	-0.94182515
97	0xbf3468de	-0.70472515
98	0xc0485739	-3.1303236
99	0xba956880	-0.0011398941
100	0xb90f9b7e	-0.00013695468
101	0x3fc0de07	1.5067757
102	0x3bb67ac2	0.005568833
103	0x3ea267af	0.3171973
104	0x0005688c	4.96682e-40
105	0xbb37d30c	-0.0028049378
106	0xbf108933	-0.5645935
107	0xbf270b8d	-0.65252
108	0xbfb6ce9f	-1.4281806
109	0x401768d6	2.3657737
110	0x80055799	-4.90602e-40
111	0xbe194838	-0.14968956
112	0x3e94faa6	0.2909748
113	0xc02fb8f1	-2.745663
114	0xbe50f188	-0.20404637
115	0x3d9a297b	0.07527443
116	0x3a8b330b	0.001062007
117	0x3e8eb86a	0.27875072
118	0xbe9dbb69	-0.30807045
119	0xbdb042b1	-0.086064704
120	0x3ac5df9c	0.0015096548
121	0xbf10c692	-0.56552994
122	0x3b81c96e	0.00396078
123	0xb7d09ef7	-2.4869556e-05
124	0x3ea97ff0	0.3310542
125	0xbfed43f4	-1.8536363
126	0xc08495af	-4.143272
127	0x8600ae94	-2.4202384e-35
128	0x3ee3aaae	0.44466156
129	0x000560ba	4.93876e-40
130	0x00055cb2	4.9243e-40
131	0xbf280819	-0.65637356
132	0x406639bb	3.5972736
133	0xbdd4f41b	-0.10398122
134	0xbeafe609	-0.3435519
135	0x3f494341	0.78618246
136	0x3aae2c75	0.0013288396
137	0x00056ca7	4.98155e-40
138	0xbebd2e2a	-0.36949283
139	0x3f28d3b1	0.65948015
140	0x80055854	-4.90864e-40
141	0x3efd532c	0.49477518
142	0xbe38e091	-0.18054415
143	0x26e5c032	1.5942162e-15
144	0xbe17a309	-0.14808287
145	0xac3aac85	-2.6527957e-12
146	0x3ee8ec89	0.45492962
147	0x4061e20d	3.529422
148	0x3eead7ed	0.45867863
149	0xba9375b0	-0.0011250284
150	0x800c260b	-1.115673e-39
151	0x3a839399	0.0010038494
152	0x3edc14bb	0.42984566
153	0x390956ff	0.00013097747
154	0xb88f862b	-6.843762e-05
155	0xbb134cf8	-0.0022476297
156	0x3f4637c3	0.77428836
157	0xbeeb7959	-0.45991018
158	0x3f1199a8	0.56875086
159	0xbf71d0f1	-0.94459444
160	0x3f821e6b	1.0165533
161	0x3dadf5c2	0.0849414
162	0xc06f8a0d	-3.742801
163	0x3f962830	1.1731014
164	0x000559e7	4.91428e-40
165	0xbf8a48aa	-1.0803425
166	0xba763b3b	-0.00093929813
167	0xba8272f1	-0.0009952468
168	0x012937ae	3.1080346e-38
169	0xb98778d6	-0.00025839236
170	0x3f150f6e	0.5822667
171	0xbd5e0d2d	-0.054211784
172	0xc016233e	-2.345901
173	0xbaaee521	-0.0013343432
174	0xc004e86a	-2.0766854
175	0x325dbc19	1.29066615e-08
176	0x3f00827a	0.5019909
177	0x00055afe	4.9182e-40
178	0x3a19e249	0.0005870206
179	0x3f2229fd	0.6334532
180	0xbe102da4	-0.1407991
181	0x3fb3e6f9	1.4054862
182	0xbfce4888	-1.6115885
183	0xc0521f86	-3.283174
184	0x3ea0525f	0.31312844
185	0xbfe7e8ce	-1.8117921
186	0xb346a337	-4.624891e-08
187	0x264dbca3	7.1379313e-16
188	0x00055fcf	4.93547e-40
189	0x00055b4c	4.91929e-40
190	0xc04c4106	-3.1914687
191	0xc004fec0	-2.0780487
192	0x8005573f	-4.90475e-40
193	0xbecc164c	-0.3986076
194	0x3fb6e2ab	1.4287924
195	0x3f09947e	0.53742206
196	0x00055979	4.91274e-40
197	0xbf6617ce	-0.89880073
198	0x3bc11347	0.0058921906
199	0xbf453f8a	-0.7705008
200	0x3b007c55	0.0019605358
201	0xbf8f753e	-1.1207654
202	0xbe851f7f	-0.26000592
203	0xbf05b276	-0.52225435
204	0x3a4dcdff	0.0007850825
205	0x3f337974	0.701072
206	0xbf8f92aa	-1.1216633
207	0xbf951c0f	-1.1649188
208	0x3f55dc8f	0.8353967
209	0xbabcf5d1	-0.0014416521
210	0xbf40c2df	-0.7529735
211	0x8005587f	-4.90924e-40
212	0xbd3b66d0	-0.045752347
213	0x23fe7035	2.7586257e-17
214	0x39c0bacb	0.00036760265
215	0x00055951	4.91218e-40
216	0x3f61fe6b	0.88278836
217	0xbe110010	-0.1416018
218	0x3bbd9fc7	0.005786869
219	0xbd037db6	-0.03210231
220	0xbe58b052	-0.21161011
221	0x3e6b53bf	0.22981165
222	0xbf0b8797	-0.5450377
223	0x3aee8ca1	0.001819987
224	0xbeea380a	-0.4574588
225	0xbf80f464	-1.0074582
226	0x8005587c	-4.9092e-40
227	0x3b4663d7	0.0030271912
228	0x3b62e5af	0.0034621765
229	0xc0243d06	-2.5662246
230	0x393aef18	0.00017827412
231	0xbe86e469	-0.26346138
232	0x800568d2	-4.9678e-40
233	0x3b4d78d1	0.003135253
234	0xc03cf970	-2.9527245
235	0x3f7c6d01	0.98603827
236	0x3eabd7b4	0.33563006
237	0x3e86f733	0.26360473
238	0x80055b24	-4.91873e-40
239	0xbf455faf	-0.77099127
240	0x3f0c426a	0.5478884
241	0x00055db1	4.92788e-40
242	0xbcd28ad5	-0.025700966
243	0xbedac6fb	-0.42729935
244	0x3b4dec6d	0.0031421438
245	0x3ebc48fc	0.36774433
246	0xbea35e6e	-0.31907982
247	0x3fc6f1f2	1.5542586
248	0xbb349d33	-0.0027559518
249	0xbccec823	-0.025241917
250	0xbdd8a469	-0.10578234
251	0x3a020e15	0.0004961205
252	0xbe3adff4	-0.18249494
253	0xbfad2f8e	-1.3530138
254	0x3fb16c32	1.3861144
255	0x28a8a6f9	1.872416e-14

net.2.bias f4 [128]
0	0x3ca0c963	0.019627279
1	0xbeb5343d	-0.35391417
2	0xbb281139	-0.002564503
3	0x3b10ff11	0.0022124688
4	0x3e84e202	0.2595368
5	0xb7d4685a	-2.5320962e-05
6	0x98d2b986	-5.447106e-24
7	0x3dfbc9a4	0.12294319
8	0x3eab68b7	0.3347833
9	0x3e0fc28d	0.14039059
10	0xbc98f89b	-0.018673232
11	0xbb1f537c	-0.0024311235
12	0x3e8434cd	0.25821534
13	0xb4afb41e	-3.2727343e-07
14	0xbbdd4a8e	-0.0067532724
15	0x8c5a3209	-1.6809166e-31
16	0xbd259eda	-0.040434696
17	0xb9c413bb	-0.00037398734
18	0x3e40f1ef	0.1884229
19	0x3e47a4df	0.19496487
20	0x3d7d864d	0.061895657
21	0x3e21cd8a	0.15801063
22	0xbdb8a779	-0.09016318
23	0xbbb91a71	-0.005648904
24	0x3eeb4089	0.45947674
25	0x3d89b661	0.06724239
26	0x3e4b0d9f	0.19829415
27	0x3e86ad36	0.26304024
28	0xbd50f177	-0.05101153
29	0xbe285ca0	-0.16441584
30	0x3e8cef47	0.27526304
31	0xbc9acfef	-0.018897979
32	0x3d82a29d	0.06378672
33	0xbbb28225	-0.0054476433
34	0xbac0d6ff	-0.0014712511
35	0xbded9b22	-0.11601855
36	0x3e59c3c9	0.21266092
37	0xbd630753	-0.055426907
38	0xaf553f5e	-1.939475e-10
39	0xb9cc152e	-0.00038925692
40	0xbdd366c3	-0.103223346
41	0xbe49b9ab	-0.19699733
42	0xbbba40e9	-0.0056840074
43	0x3e092ef0	0.13396811
44	0x3dde54c9	0.10856015
45	0xbb0a564c	-0.0021108566
46	0xbb481e7c	-0.0030535748
47	0x3b04a688	0.0020240862
48	0x3d2e44ce	0.042546086
49	0xbb1c6538	-0.0023864042
50	0xbb3ffc6d	-0.0029294745
51	0xac8ced77	-4.005403e-12
52	0xb9e0284c	-0.00042754633
53	0xbb856a9b	-0.0040715463
54	0x3d334fd6	0.04377731
55	0xbce0b5c4	-0.027430423
56	0xba3dfbff	-0.0007247328
57	0xbe36acef	-0.17839406
58	0xbd900eb6	-0.07034056
59	0x3e622b96	0.22086939
60	0x3e074dee	0.13213322
61	0x3ea15876	0.31512803
62	0xba9c9409	-0.0011945973
63	0xb781e7e2	-1.5485977e-05
64	0xba7529b4	-0.00093522226
65	0xb38da0d9	-6.595082e-08
66	0xbe51d26b	-0.20490424
67	0xba912ece	-0.0011076571
68	0xba432c56	-0.0007445266
69	0xba82c2cf	-0.000997627
70	0x9afd5a9a	-1.0478472e-22
71	0xbc0fa7a2	-0.008767994
72	0x3e5ffe03	0.21874242
73	0xbb5f8ebd	-0.0034112178
74	0x3c32c163	0.010910365
75	0xb76990e6	-1.3921619e-05
76	0x3d4ddfea	0.05026237
77	0x3c7182ae	0.014740629
78	0x3e3a2327	0.18177472
79	0x3f030f97	0.51195663
80	0x3e10c208	0.14136517
81	0xbb2918ff	-0.0025802252
82	0x3d385cab	0.04501025
83	0xbb289cb7	-0.0025728175
84	0xbd21deab	-0.039518993
85	0xbcd5ae7f	-0.026084183
86	0xb97a7bcc	-0.00023887976
87	0x3d8fdd69	0.070246525
88	0x3dac618e	0.084170446
89	0xbaa36b31	-0.0012467859
90	0xbb877523	-0.004133837
91	0xbada3f0d	-0.0016650871
92	0xbd6cbd64	-0.057797804
93	0x3e778256	0.24170813
94	0xbd028da1	-0.03187335
95	0x3e2dee98	0.16985548
96	0xb30da40a	-3.2978313e-08
97	0x3dd0c601	0.10194016
98	0x3e7696b5	0.24080928
99	0x3d7cb187	0.06169274
100	0x3e37b473	0.1793993
101	0x3f082219	0.5317703
102	0xba2515d0	-0.0006297501
103	0xba996b60	-0.0011704974
104	0xbb4e1fed	-0.0031452135
105	0x99acee16	-1.7880545e-23
106	0xbace6a7f	-0.0015748291
107	0xbba7dbb6	-0.005122627
108	0xbbbf06e5	-0.0058296793
109	0xbd114f19	-0.035475824
110	0xba72f043	-0.0009267369
111	0x3ec74e7d	0.3892707
112	0x3e1157db	0.1419367
113	0x3e80e458	0.25174212
114	0x8833f0f4	-5.414909e-34
115	0x3c7efa0b	0.015562545
116	0x3e25f215	0.16205628
117	0x3da14bfc	0.07875821
118	0x3e8848a9	0.26617935
119	0xb8ae43b5	-8.309578e-05
120	0xb9f45b69	-0.00046607413
121	0xbba9a883	-0.005177559
122	0xbb01c990	-0.0019803979
123	0xbb2ac1ce	-0.0026055458
124	0x3e621a07	0.22080241
125	0x3da6b87f	0.081406586
126	0x3ed387b9	0.41314486
127	0x3e2e2e66	0.17009887

net.4.weight f4 [64, 128]
0	0x3cd529bc	0.026020877
1	0x3dae85de	0.08521627
2	0x38575447	5.1338484e-05
3	0xbcb7bb48	-0.02242817
4	0x3e9fca3f	0.3120899
5	0x00055908	4.91116e-40
6	0x0f85b862	1.3185834e-29
7	0xbeca84db	-0.39554486
8	0xbefb0c3b	-0.4903277
9	0x3ee28976	0.442455
10	0x3f02ccb2	0.5109359
11	0x1ae59118	9.494659e-23
12	0xbea934f1	-0.33048204
13	0x80baf029	-1.7167556e-38
14	0x3b385459	0.0028126447
15	0x800558d1	-4.91039e-40
16	0xbdf7b260	-0.12094569
17	0xb320be32	-3.7425885e-08
18	0x3c26f057	0.010189137
19	0x3eec24ae	0.46121734
20	0x3f2c9a2b	0.6742274
21	0xbfc7baab	-1.5603842
22	0x3f1c1f5c	0.6098535
23	0x3c7d16ef	0.015447362
24	0xbe277b1d	-0.16355558
25	0x3ec35897	0.38153526
26	0xbf433437	-0.7625155
27	0x3e7e82ea	0.24854627
28	0x3fb8a66a	1.4425786
29	0x3f5b5775	0.85680324
30	0x3e6db028	0.2321173
31	0xbd9ac27d	-0.07556627
32	0xbc91195a	-0.017712284
33	0xb5691d41	-8.6841834e-07
34	0x3a0b4818	0.0005313172
35	0x3e629e95	0.22130807
36	0x3f0f9c7e	0.56098163
37	0x3d4ec945	0.050484914
38	0x29587abf	4.80681e-14
39	0xb175ed43	-3.578706e-09
40	0xbda9f5a9	-0.08298809
41	0xbeb68075	-0.3564488
42	0x384518b8	4.699148e-05
43	0x3deaf1bd	0.11471889
44	0x3e0fc4a8	0.14039862
45	0x3a372202	0.00069859636
46	0x3e017eb1	0.12645985
47	0x3ee98768	0.4561112
48	0x3eb40be4	0.35165322
49	0x3b3201a7	0.002716163
50	0x37a7fef2	2.002667e-05
51	0x8005599e	-4.91326e-40
52	0x1012e5f3	2.897057e-29
53	0x38d1737b	9.9874065e-05
54	0x3faf0148	1.3672266
55	0x3e9fbe70	0.3119998
56	0xaf3c06f8	-1.7100976e-10
57	0xbe8d1897	-0.27557823
58	0x3e8da1eb	0.27662596
59	0xbd5a5a13	-0.053308558
60	0xbdcfa829	-0.10139496
61	0xbd1ce679	-0.038305733
62	0xbab11b80	-0.0013512224
63	0x000567e6	4.96449e-40
64	0xad11040b	-8.2431935e-12
65	0x80055e85	-4.93085e-40
66	0xbecb38fe	-0.3969192
67	0xbe65f80a	-0.224579
68	0x361b9684	2.3184411e-06
69	0x00056bec	4.97893e-40
70	0x00055b0b	4.91838e-40
71	0x3bb8e1d0	0.0056421533
72	0xbf06b81a	-0.52624667
73	0xb958ec76	-0.00020687454
74	0xbd8adba9	-0.06780178
75	0x877304ba	-1.8282677e-34
76	0x3fceb90c	1.6150222
77	0xbe8cd1c5	-0.2750379
78	0x3e567181	0.20941736
79	0xbe68cddf	-0.22734784
80	0xbf886785	-1.0656592
81	0xbb33d73e	-0.0027441527
82	0xbede8a15	-0.43464723
83	0xbb5a79a9	-0.0033336675
84	0x3e006ebb	0.1254224
85	0x3d029e48	0.03188923
86	0x22d69e15	5.8172192e-18
87	0x3d9af640	0.075665
88	0x3eedccb2	0.46445233
89	0x3ba33964	0.0049812067
90	0xbb4a6fee	-0.003088947
91	0xb61242f0	-2.1794658e-06
92	0xbe2f5bf7	-0.17124926
93	0x3e8812a4	0.26576722
94	0x3f0d17a6	0.5511421
95	0x3f8f547d	1.1197659
96	0x800558cd	-4.91033e-40
97	0xbe0b44ae	-0.13600418
98	0xbeb7e90e	-0.35919994
99	0x3e915169	0.28382424
100	0xbf0138c4	-0.5047724
101	0xbe11646a	-0.14198461
102	0xb871299b	-5.7497626e-05
103	0xbbb6b15e	-0.005575343
104	0x3a3e110d	0.00072504656
105	0x000559fb	4.91456e-40
106	0x297ebd1e	5.6563363e-14
107	0xbb1f16ac	-0.0024274988
108	0xb9c15785	-0.00036877036
109	0x3ff701dd	1.9297444
110	0xb561adf4	-8.4072167e-07
111	0xbf94f6be	-1.16378
112	0xbfaaf58d	-1.3356186
113	0xbe7b9fbe	-0.24572656
114	0x0047b3f7	6.58488e-39
115	0x3ebf2c1e	0.37338346
116	0x3ea4813f	0.32129857
117	0x3e2fa072	0.17151049
118	0x3f0b1b5a	0.5433861
119	0x96f974e7	-4.0301895e-25
120	0x3af12e7c	0.0018400694
121	0xbbaf7a3e	-0.0053551486
122	0xbb094257	-0.0020944083
123	0x3a2d6508	0.0006614481
124	0xbeed3777	-0.4633138
125	0xbfe8af6d	-1.8178536
126	0xbcdf60e6	-0.027267884
127	0x3eb39d46	0.35080928
128	0xbe9748f6	-0.29547852
129	0x3fd4fa20	1.6638832
130	0x38e0de97	0.00010722613
131	0x3faf7f3a	1.3710701
132	0x3cc7b573	0.024378514
133	0xab079656	-4.817027e-13
134	0x93016554	-1.6332048e-27
135	0xbf56beec	-0.83885074
136	0xbee0d649	-0.43913487
137	0xbdbb90a2	-0.09158446
138	0xbdf904c1	-0.1215911
139	0x31c760e1	5.802676e-09
140	0x3e8936ff	0.2679977
141	0x0eccfc0a	5.0532587e-30
142	0x3b21b255	0.0024672945
143	0x80055f5a	-4.93383e-40
144	0xbf9bcd82	-1.2172091
145	0xb3eaba88	-1.0930404e-07
146	0x3e26f149	0.1630298
147	0x3fd8602a	1.6904347
148	0xbfd92889	-1.6965495
149	0x3ef2a47f	0.47391126
150	0xbf89cfb2	-1.0766509
151	0xbb5a9559	-0.0033353178
152	0x3aa60259	0.0012665495
153	0xbd829435	-0.063759245
154	0x3f311e76	0.69187105
155	0x3edb687a	0.42853147
156	0xbf0af126	-0.54274213
157	0xbf4ec7ab	-0.8077342
158	0x3fd78ca8	1.68398
159	0xbbe19799	-0.006884527
160	0x3e0ce06f	0.1375749
161	0x3897b987	7.234798e-05
162	0x3a242f61	0.00062631635
163	0xbf1c573e	-0.6107062
164	0xbe5ea154	-0.2174123
165	0xbf367103	-0.7126619
166	0xa81f1bd6	-8.832309e-15
167	0xb6663ab0	-3.4306831e-06
168	0xc047ea44	-3.1236734
169	0xbf1aebc4	-0.60516
170	0xba5b0110	-0.00083543453
171	0xc0402c3f	-3.0027006
172	0x4048cb25	3.137399
173	0x3ab576e1	0.0013844633
174	0xbe76a594	-0.240866
175	0xbf20393d	-0.6258734
176	0xbeeffc43	-0.46872148
177	0x3aaf5d0f	0.0013379174
178	0xb7e3a7bc	-2.7138616e-05
179	0x0005577a	4.90558e-40
180	0xb44fa867	-1.9339642e-07
181	0x3514940d	5.534974e-07
182	0xbeed888f	-0.46393248
183	0x3de31561	0.11088062
184	0xb227802b	-9.749821e-09
185	0x3f63a487	0.88922924
186	0x408519e4	4.1594105
187	0x3f942559	1.1573898
188	0xbe97b557	-0.2963054
189	0x3e6bf690	0.23043275
190	0xb70325d0	-7.817012e-06
191	0x80055f7d	-4.93432e-40
192	0x337baae4	5.8595916e-08
193	0x000560d0	4.93907e-40
194	0x3f4059c7	0.7513699
195	0x3e95d6dc	0.29265487
196	0xb78e64a4	-1.6974584e-05
197	0x80056368	-4.94838e-40
198	0x00055bd8	4.92125e-40
199	0x3bf997e1	0.0076169823
200	0xbf41516f	-0.7551488
201	0x39afc6b5	0.0003352665
202	0x4058ce26	3.3875823
203	0x850b8101	-6.559443e-36
204	0xbc913279	-0.017724263
205	0xbf11374a	-0.5672499
206	0x3e413b63	0.1887031
207	0x3d7d9326	0.06190791
208	0x408a214c	4.3165646
209	0x3b1a6c6a	0.0023563155
210	0xbf17bbe2	-0.5927106
211	0xbb623658	-0.0034517255
212	0x3e4daaa3	0.20084624
213	0xbc7b5e44	-0.015342299
214	0x2681cd3d	9.006803e-16
215	0x3e2205ab	0.15822475
216	0xbc9a0aaf	-0.018803922
217	0xba517b3a	-0.00079910795
218	0x37fa5fd0	2.9846939e-05
219	0xb86ce708	-5.648195e-05
220	0xbf33a47a	-0.70172846
221	0x3f18cc20	0.5968647
222	0xbfc29d2f	-1.5204219
223	0xbfdbc815	-1.7170435
224	0x800569ee	-4.97178e-40
225	0xbe3a4b0c	-0.1819269
226	0xbc91bae2	-0.017789308
227	0xbb72436c	-0.0036966456
228	0xbf59fe29	-0.8515344
229	0x3e11c771	0.14236237
230	0xb17276c0	-3.5283136e-09
231	0x3b17ef1a	0.0023183287
232	0xbb060e5f	-0.0020455343
233	0x00055d39	4.9262e-40
234	0x35df465b	1.6635271e-06
235	0xbadcc4de	-0.0016843339
236	0x39ecf6b6	0.00045197242
237	0xbfa36c3e	-1.2767408
238	0x354fd7b4	7.74274e-07
239	0x3f2cdd69	0.67525345
240	0x409c89f3	4.8918395
241	0xbfbef0c0	-1.4917221
242	0x814409a7	-3.600644e-38
243	0xbe92fcf2	-0.28708607
244	0x3e2cce38	0.16875541
245	0x3eee48a9	0.4653981
246	0x3f8cc510	1.0997639
247	0xa604716c	-4.5950415e-16
248	0x3a3b8b3a	0.000715423
249	0xba58bf55	-0.0008268257
250	0xba8560ff	-0.0010176002
251	0x3acd65fb	0.0015670651
252	0xbef4930a	-0.47768432
253	0xbcc5378f	-0.024074344
254	0x3f95e232	1.1709654
255	0x3f14185f	0.5784969

net.4.bias f4 [64]
0	0x3d010af1	0.031504575
1	0x3de4e1b0	0.11175859
2	0xbdbd038b	-0.092291914
3	0x3d1aa7f1	0.037757818
4	0x3ee74907	0.45172903
5	0x3e2a20cb	0.16614072
6	0x3eaa45b2	0.33256298
7	0x3f9a835c	1.2071338
8	0x3eda20a1	0.4260302
9	0x3ca15099	0.019691752
10	0x3eaf05e5	0.34184185
11	0x3f8c14b0	1.0943813
12	0x3e272816	0.16323885
13	0xbd64ba01	-0.05584145
14	0xbf30a674	-0.6900399
15	0x3f655feb	0.89599484
16	0xab95b44c	-1.0637129e-12
17	0x3e1e6e4f	0.15471767
18	0xb9c4b514	-0.00037518947
19	0x3c05ae80	0.00815928
20	0xbd97bac1	-0.07408667
21	0x3dd1f8e7	0.102525525
22	0xb98339b9	-0.00025029274
23	0x3b2c1150	0.0026255436
24	0x3e224af5	0.15848906
25	0x3f4f546f	0.8098821
26	0x3dfd082f	0.123550765
27	0x3ec3d602	0.38249213
28	0x3f3b6cd9	0.73212963
29	0x3f53b213	0.82693595
30	0x3fbccd13	1.4750084
31	0x3dd45a98	0.10368842
32	0x3ec7179f	0.3888521
33	0x3e3061c7	0.17224799
34	0x3e97d433	0.29654083
35	0xbc83e1ae	-0.016098823
36	0x3fd2fdc8	1.6483698
37	0x3e9e851a	0.30960923
38	0x3f3462d6	0.7046331
39	0x3e89664b	0.26835856
40	0xba03cc93	-0.00050277374
41	0xbcd56f14	-0.026053943
42	0xbca4b36e	-0.02010509
43	0x3df0ebad	0.117637016
44	0x00056100	4.93975e-40
45	0x3eafee8e	0.3436169
46	0x3f90e980	1.1321259
47	0x3c2519e8	0.010076977
48	0x3ef601d9	0.48048285
49	0x3ea50900	0.3223343
50	0x3f7a683f	0.97815317
51	0x3e98bf8d	0.29833642
52	0x3eafe6a5	0.34355655
53	0x3e3437fe	0.17599484
54	0xbd88f532	-0.06687392
55	0x3e3b8dc9	0.18315805
56	0x3e59dbec	0.212753
57	0x3e0ae302	0.13563159
58	0xbb4bf67d	-0.003112226
59	0x801f96d2	-2.901005e-39
60	0xbc0e69e2	-0.008692237
61	0x3e9b310e	0.30310863
62	0x3d67c06f	0.056580003
63	0xbb67445e	-0.0035288553

net.6.weight f4 [3, 64]
0	0xbcee245b	-0.02907007
1	0x3d84cf25	0.06484822
2	0x3b8f0fba	0.0043658884
3	0x3e5615ea	0.20906797
4	0x3bddeeee	0.0067728674
5	0x3daf3a23	0.085560106
6	0xbdbf764c	-0.09348735
7	0x3d029204	0.031877533
8	0x3c945b41	0.01810992
9	0x3e170c0d	0.14750691
10	0x3cdb39b9	0.026760923
11	0x3e0ed8ba	0.13949862
12	0xbcee0caf	-0.029058782
13	0x3d56af1a	0.052413084
14	0x3be13745	0.0068730437
15	0xbeb47f3b	-0.3525332
16	0x00055e7f	4.93076e-40
17	0xbc176e75	-0.009242644
18	0x00055bfc	4.92175e-40
19	0x40304406	2.7541518
20	0xbcde29d5	-0.027119556
21	0xbda3f502	-0.08005716
22	0x800567df	-4.9644e-40
23	0x3d5bf1fc	0.05369757
24	0xbb21f83c	-0.002471461
25	0x3ec23b9a	0.37936097
26	0xbda31862	-0.07963635
27	0xbcc0ac8c	-0.023519777
28	0xbc941ccf	-0.018080143
29	0x3d4ec5fa	0.050481774
30	0xbc86419d	-0.016388709
31	0x3b8482cc	0.0040439125
32	0x3d4a3960	0.049371123
33	0xbd6d0acd	-0.05787163
34	0xbc14ada8	-0.009074606
35	0x3de40d87	0.11135393
36	0x3d7b9851	0.061424557
37	0x3c97b7d4	0.018520273
38	0x3c48617e	0.012230275
39	0x3d18ed55	0.037335712
40	0xba87994b	-0.0010345367
41	0xbeba909f	-0.36438462
42	0x3b55a9d4	0.0032602446
43	0x3c9e3631	0.01931295
44	0x80055763	-4.90526e-40
45	0x3cd5c572	0.026095126
46	0xbe4fad56	-0.20280966
47	0xbca99f74	-0.020705916
48	0x3d113a72	0.03545613
49	0xbd0a6de8	-0.03379622
50	0xbd7c17b1	-0.06154603
51	0x3d6382d1	0.055544678
52	0xbd2abd88	-0.041684657
53	0x3bd6a6f2	0.006550663
54	0xbfa9944a	-1.3248379
55	0x3c420681	0.011842371
56	0x3d3a493d	0.04548
57	0xbd3c823b	-0.046022635
58	0x35fedc96	1.8988674e-06
59	0x000562a2	4.9456e-40
60	0xbea15851	-0.31512693
61	0x3aa6c6e1	0.0012724065
62	0xbf55f3f6	-0.8357538
63	0xa7d1fee5	-5.828551e-15
64	0xbc7e14ac	-0.015507858
65	0xbdac068d	-0.08399687
66	0xbad449c3	-0.0016196299
67	0x3e99b1d2	0.3001848
68	0x3bebc917	0.0071956026
69	0x3d43afd2	0.047775097
70	0x3dbfb22e	0.09360157
71	0xbd1fb462	-0.038990386
72	0xbb898d28	-0.0041977353
73	0xbe4229cc	-0.18961257
74	0xbce86014	-0.028366126
75	0xbde7d403	-0.11319735
76	0x3d0dfae4	0.034663096
77	0xbcfa6f2b	-0.030570587
78	0x3be4652a	0.0069700675
79	0xbe8d8bb7	-0.27645656
80	0x00055e5c	4.93027e-40
81	0x3b6f4ddd	0.0036514916
82	0x00055892	4.9095e-40
83	0x3f4afe5e	0.79294384
84	0x3c27ab14	0.010233659
85	0xbd203677	-0.03911444
86	0x00056b13	4.97588e-40
87	0xbdadf932	-0.08494796
88	0xbc9bdb3b	-0.019025436
89	0x3e222022	0.1583257
90	0x3d4f3970	0.050591886
91	0x3b1a3f05	0.0023536098
92	0x3e04d4c6	0.12971792
93	0x3e2eb785	0.17062195
94	0x3cf70e50	0.030158192
95	0xbd3bd496	-0.045857035
96	0x3b32ab28	0.0027262662
97	0x3da7d73b	0.08195349
98	0x3bd20502	0.0064092884
99	0x3ddf666d	0.10908208
100	0xbe18cb95	-0.1492141
101	0xbce45c49	-0.027876036
102	0xbcb9d9bd	-0.022686834
103	0x3cf68953	0.030094778
104	0x3aae6cea	0.0013307605
105	0x3f2d40a0	0.67676735
106	0x3d913be6	0.07091503
107	0x3d5a6bc6	0.053325437
108	0x80055dc2	-4.92811e-40
109	0xbd82e603	-0.063915275
110	0xbd5703f1	-0.052493993
111	0xbcb7c0a2	-0.022430722
112	0xbcf87af1	-0.03033206
113	0xbd31e8ca	-0.043434896
114	0x3e24dae4	0.16099125
115	0xbc949bcf	-0.018140702
116	0x3be74160	0.007057354
117	0x3b759ad0	0.0037476309
118	0x402b9100	2.680725
119	0x3c167fd6	0.009185752
120	0x3d121aeb	0.035670202
121	0xbba18694	-0.004929373
122	0x2f37fe30	1.6734059e-10
123	0x0005600b	4.93631e-40
124	0x3e8dcf8f	0.27697417
125	0xbbd834db	-0.0065980977
126	0xbe25fb40	-0.16209126
127	0x2033435b	1.5184176e-19
128	0x404aa1a0	3.1661148
129	0x40234d5d	2.5515969
130	0xc0cc2039	-6.3789334
131	0xbeeecf4e	-0.46642536
132	0xc0df7092	-6.9824915
133	0x401b128d	2.4230072
134	0x3fa713d9	1.3052932
135	0x4090c461	4.523972
136	0x3f9c55bb	1.2213663
137	0xbe00b0cc	-0.12567443
138	0x3fa01113	1.2505211
139	0x3fa538c7	1.2907952
140	0x40434f0c	3.0516996
141	0xbe3dff97	-0.18554531
142	0xc010e29d	-2.2638314
143	0x3f9d12c7	1.2271355
144	0x1903062e	6.773789e-24
145	0x407cf26e	3.9522967
146	0xb79bf1c9	-1.859003e-05
147	0xbb0d8be5	-0.0021598276
148	0x401bcce8	2.4343815
149	0x401272b7	2.2882516
150	0x8005642d	-4.95114e-40
151	0xb93069ef	-0.00016824131
152	0x3ff5c3fc	1.9200435
153	0x3f94f48c	1.163713
154	0xbf91c05a	-1.1386826
155	0x40e5ff94	7.1874485
156	0x3fa18174	1.2617631
157	0x3f9d2509	1.2276927
158	0x40a17995	5.0460916
159	0x4024eb8f	2.5768774
160	0x3fc40bc3	1.5316089
161	0x40231b77	2.5485513
162	0xc124d700	-10.30249
163	0xbb9d858c	-0.00480718
164	0x3feb4bee	1.8382547
165	0x405871b1	3.3819392
166	0xc09503b8	-4.656704
167	0x408a225a	4.3166933
168	0x3a3b12c6	0.00071362813
169	0xbe426b2b	-0.18986194
170	0xbfefb655	-1.8727518
171	0x4020118b	2.5010707
172	0x00055aa5	4.91695e-40
173	0xbfa4cced	-1.2875038
174	0x3fa8dd55	1.3192545
175	0x408cd829	4.4013867
176	0x410ae9ed	8.682111
177	0x3fbee0b2	1.4912322
178	0x3fa0dc67	1.2567261
179	0x3fb9b14f	1.4507235
180	0x401117b3	2.2670715
181	0x400b3aaa	2.1754556
182	0x3a455e2f	0.0007528988
183	0x40383c73	2.8786895
184	0x405c5a22	3.4430013
185	0x40a3e0a7	5.1211734
186	0x38ace5a3	8.244372e-05
187	0x000560d2	4.9391e-40
188	0x3bb52d83	0.005529107
189	0xc10bd2f0	-8.738998
190	0xbdf1fb7a	-0.118155435
191	0x3b0d005a	0.0021515102

net.6.bias f4 [3]
0	0xbe2b0342	-0.16700462
1	0x3f4c56b0	0.79819775
2	0x3faf5053	1.3696388
